model/critic2_model.pth (torch, 345928 bytes, 7 tensors)

lstm.weight_ih_l0 f4 [512, 5]
000000 fa 18 80 bd a8 23 7d 3d f5 cb 0a bf ce f8 35 bf
       -0.06254764 0.061801583 -0.54217464 -0.7108277
000010 68 ef 8f bf c9 ad 02 c0 61 60 1c c0 ca bb 09 c0
       -1.1244936 -2.041857 -2.4433825 -2.1520867
000020 5a 44 ef bf 9a 1b 6f bf 6b b0 e0 3e de 11 a8 3e
       -1.8692734 -0.9340149 0.43884596 0.32826132
000030 60 dd 67 bd 51 56 8c 3f 13 9f 0a bf 32 41 63 bf
       -0.056607604 1.0963842 -0.5414898 -0.88771355
000040 69 7d af bf 37 45 00 c0 27 6e 1c c0 b6 aa 03 c0
       -1.3710147 -2.0042245 -2.4442232 -2.0572944
000050 cf 81 a9 3f 0f c0 21 3f 0c 50 e4 bd 40 22 16 bf
       1.324274 0.63183683 -0.1114808 -0.5864601
000060 cd ed 37 bf ab 14 1d bf b3 96 ee be d5 9c f9 be
       -0.7184723 -0.6135966 -0.4659935 -0.48752466
000070 3a f4 a1 be a0 f7 e2 be 20 a4 5b bf 28 83 85 bf
       -0.31631643 -0.44329548 -0.8579731 -1.0430651
000080 06 4b 89 bf b8 7a b8 bf 5d 4c d8 bf b9 e3 15 c0
       -1.072602 -1.4412451 -1.6898304 -2.342024
000090 42 b4 11 c0 98 45 0d c0 dc be 2a c0 d3 e9 df bf
       -2.276627 -2.2073727 -2.6678991 -1.7493232
0000a0 83 7a c4 bc a7 c3 e4 3d f9 81 cf 3d 4c 10 2b 3e
       -0.0239842 0.1117013 0.10132212 0.16705436
0000b0 6d b0 b5 3e 12 02 c5 be b9 61 1c bf 8d 70 74 bf
       0.35486165 -0.38478142 -0.6108661 -0.9548424
0000c0 b1 fa 57 bf af 9e 9b bf 73 af 49 3f a0 23 19 bf
       -0.843669 -1.2157801 0.7878334 -0.59819984
0000d0 94 11 86 bf d9 0e f6 bf c1 9d 0f c0 99 c5 8c bf
       -1.0474114 -1.9223281 -2.2440035 -1.0997802
0000e0 fd b2 9a bf 24 6b 87 bf 63 f7 41 bf 2e 59 63 bf
       -1.2085873 -1.0579572 -0.7576811 -0.8880795
0000f0 b0 4e 62 bf 92 02 47 bf 93 94 3d bf 6b c4 61 bf
       -0.8840132 -0.77738297 -0.7405483 -0.88190335
000100 23 2a a4 bf 19 d0 d7 bf 9c 5e c8 bf 78 fe d3 bf
       -1.2825359 -1.6860381 -1.5653872 -1.6562033
000110 ff 96 00 bf d4 8c f8 be 31 80 69 c0 37 33 7d c0
       -0.502304 -0.48544943 -3.6484492 -3.956251
000120 e8 72 49 c0 bd a3 09 c0 9a a3 ce bf 5f 02 1d c0
       -3.1476383 -2.1506188 -1.6143677 -2.4532697
000130 dd a9 4b c0 96 f2 3c c0 ae 23 0e c0 50 23 01 c0
       -3.1822426 -2.9523063 -2.2209277 -2.0177803
000140 3e 2d a4 be 4d 00 84 be 11 3e 96 be 99 81 16 be
       -0.32065767 -0.2578148 -0.29344228 -0.14697875
000150 82 b2 b7 be 3f b9 82 3d e8 a9 d7 bd 53 1a 23 be
       -0.35878378 0.06382989 -0.10530454 -0.1592801
000160 f6 24 72 3e 2f 11 92 3e 63 86 f6 bd 06 8e 84 be
       0.23646912 0.28528735 -0.12037351 -0.25889605
000170 f8 2d 7c be 34 d6 12 be b8 61 6f be 60 fe 25 bf
       -0.2462691 -0.14339525 -0.2337712 -0.6484127
000180 82 ea 21 bf 05 7b 5d bf ab 16 a2 bf 44 bf b2 bf
       -0.63248456 -0.8651584 -1.2663168 -1.396462
000190 2c b0 69 bf 23 3c 61 bf 3a e6 3b bf d1 b7 b9 be
       -0.9128444 -0.87982386 -0.7339817 -0.36273053
0001a0 f5 cb 3a bf 03 8b 94 bf af ab a0 bf 34 9c 65 bf
       -0.72967464 -1.1604923 -1.2552394 -0.8969147
0001b0 1f 36 dc bf a5 1e b5 bf 82 ac 52 3e 11 6a 7d be
       -1.7204016 -1.4149977 0.20573619 -0.24747492
0001c0 48 0c 0b bf 6d 91 31 bd 3a ab 74 be b0 b3 52 c0
       -0.54315615 -0.04335158 -0.23893443 -3.2922173
0001d0 1d 71 7c c0 88 d1 69 c0 da d0 27 c0 19 62 1c c0
       -3.944404 -3.6534138 -2.6221223 -2.4434874
0001e0 b6 2b 27 bd ff 3c 75 3e 2e 4d 0e 3d 82 b4 7b bc
       -0.04081317 0.2394905 0.034741573 -0.015362861
0001f0 f8 bb a3 3e 82 2e ca bc 95 7f 00 3e 6f 62 08 3e
       0.31979346 -0.02468038 0.12548669 0.133188
000200 90 37 54 3e c6 39 b7 3e 67 2e a0 bf b3 2c ac bf
       0.2072432 0.35786265 -1.2514161 -1.3451141
000210 9d f2 9a bf f1 84 8d bf 89 56 bb bf 19 36 d2 bf
       -1.210529 -1.1056195 -1.4635783 -1.6422759
000220 99 cc b6 bf 7d ba 9f bf 29 1b e9 bf 66 48 e9 bf
       -1.4281188 -1.2478787 -1.8211414 -1.8225219
000230 a3 bf 8d bf a3 01 6c bf fb e9 77 bf 37 f5 a2 bf
       -1.1074108 -0.9219 -0.968414 -1.2731084
000240 62 df bb bf 02 d8 4b bd ef 56 b0 3e 7d ad c2 3e
       -1.4677546 -0.049766548 0.34441325 0.38022986
000250 40 de 15 3f cd cc 8a 3e 1d a0 88 c0 58 25 86 c0
       0.5854225 0.27109376 -4.269545 -4.1920586
000260 24 7c 8f c0 cc df 23 c0 24 f1 0b c0 74 20 67 be
       -4.483904 -2.5605345 -2.186593 -0.22570974
000270 79 d6 3a 3e ad 3d 5b 3e 70 1d d2 be 8d 89 be bf
       0.18245877 0.21410246 -0.41038084 -1.4885727
000280 f1 21 b2 bf df f9 88 bf ff b0 db bf 9d 46 42 bf
       -1.3916608 -1.0701255 -1.716339 -0.75889
000290 14 e8 86 bf 83 ad 4b bf 93 dd 4d bf c2 20 4f bf
       -1.0539575 -0.7956163 -0.8041622 -0.8090936
0002a0 82 31 25 bf fc 1a 7a bf 12 33 4e bf 8b 90 4a bf
       -0.6452867 -0.97697425 -0.8054668 -0.79126805
0002b0 65 a6 4c bf 14 a9 d4 be 7d b3 02 bf 5d 9b 5d c0
       -0.799414 -0.41535246 -0.5105513 -3.4626076
0002c0 aa fd 51 c0 ff 97 26 c0 1c 97 09 c0 0b e9 f0 bf
       -3.2811074 -2.603027 -2.149848 -1.8821119
0002d0 8e cc 45 c0 7b 56 52 c0 1b a4 f4 bf 1f be 09 c0
       -3.09061 -3.2865283 -1.9112581 -2.152229
0002e0 ed f6 b7 bf 96 7b 90 bf 24 7c b5 bf eb 9f e7 bf
       -1.4372231 -1.1287715 -1.417851 -1.8095678
0002f0 20 85 16 bf 6a 28 63 bf 7e 98 31 bf 05 39 1f bf
       -0.5879688 -0.8873354 -0.6937331 -0.6219638
000300 48 a3 35 bf 40 11 4e bf 92 e5 7a bf 82 df 1f c0
       -0.7095227 -0.8049507 -0.98006546 -2.4980168
000310 bd d1 15 c0 20 61 dc bf bf d9 45 bf ad 94 bc bf
       -2.3409264 -1.721714 -0.7728538 -1.4732872
000320 91 9d 51 c0 ed dc 7a c0 a4 8a 80 c0 0b 98 d7 bf
       -3.275242 -3.9197342 -4.016924 -1.6843275
000330 05 8d d5 bf 1f 4c d1 be 82 a7 e8 be c4 fe 21 bf
       -1.6683661 -0.40878388 -0.45440298 -0.63279366
000340 19 5e d1 be 31 6d d7 be 96 77 84 bf 9f 99 6e bf
       -0.40892103 -0.42075494 -1.0348995 -0.9320316
000350 66 59 49 bf be ae f7 bd 5e ae 27 bf 73 00 02 c0
       -0.78652036 -0.12093876 -0.6550044 -2.0312774
000360 11 14 ce bf 27 66 28 c0 39 b6 b7 bf d0 5e 9c bf
       -1.6099874 -2.631235 -1.4352485 -1.2216434
000370 35 a5 a3 bf b0 99 a6 bf d3 c2 b5 bf 90 5a d8 bf
       -1.2784792 -1.3015652 -1.4200081 -1.6902637
000380 da 20 8c be 4a 1e 88 be 08 70 c3 be 10 f9 b9 be
       -0.27368814 -0.2658561 -0.3817141 -0.36322832
000390 13 bb d0 bd 4e 08 9a be 26 f2 f2 bd db bc e6 be
       -0.101919316 -0.3008446 -0.118625924 -0.4506596
0003a0 7c f1 6a bf eb ff df be 53 02 f7 be 18 ef 62 bf
       -0.91774726 -0.43749937 -0.4824396 -0.8864608
0003b0 c8 d9 6e bf 9d eb 53 bf ea f1 da be 88 11 3c bf
       -0.9330106 -0.8278139 -0.4276269 -0.7346425
0003c0 02 8d 1d bf 02 c2 39 bf 54 0c 3f bf e5 18 db be
       -0.61543286 -0.7256166 -0.74628186 -0.4279243
0003d0 77 c3 05 bf e9 dc b5 bf 4b 33 4a bf f0 15 73 bf
       -0.5225138 -1.4208041 -0.78984517 -0.9495535
0003e0 6d c0 c8 bf 02 cb 06 c0 bc f5 51 bf 94 ce 2a bf
       -1.5683724 -2.1061406 -0.82015586 -0.66721463
0003f0 6d d2 2a bf b4 15 ff be b1 d3 51 bf 24 0f 7d bf
       -0.66727334 -0.49821246 -0.8196364 -0.9885123

lstm.weight_hh_l0 f4 [512, 128]
000000 57 51 a8 3c 64 8c 46 3d 42 a0 2b 3d 95 5b f2 3c
       0.020546598 0.04847373 0.04190088 0.029584685
000010 3b 13 4d bc 16 86 13 bc a2 ab a6 3d c3 92 b0 3d
       -0.012516792 -0.009004137 0.08138205 0.086217426
000020 9a 7d 6b 3d ca cc 0e bd c1 5c 4a bd 74 d2 fc 3c
       0.05749283 -0.03486327 -0.049404863 0.03086207
000030 19 20 ae 3c 6d 6f a6 b7 92 95 3e bd 45 c3 a0 bd
       0.02125554 -1.9840629e-05 -0.04652936 -0.07849745
000040 6b 63 2c 3b dc a8 47 bd 63 60 ad 3b e1 2c 70 3d
       0.0026304375 -0.04874502 0.005291031 0.05863655
000050 5c e0 38 bd 15 20 4f 3c f2 49 70 3d e4 2f 9f 3b
       -0.04513584 0.012641926 0.05866427 0.004858004
000060 bd 00 9c bd 82 f7 a2 3d 15 66 b2 bd ac 3c 1d bd
       -0.07617328 0.079573646 -0.08710877 -0.03838794
000070 3d 49 46 bd f0 a1 d5 3b c4 f2 cd 3c 2c 17 ab bd
       -0.04840969 0.0065195486 0.025140174 -0.08354029
000080 e6 63 b1 3c 70 af 29 3d 4d 64 eb 3c 97 32 ea bc
       0.02165408 0.041427076 0.02873435 -0.028588576
000090 b8 67 81 3d 97 ea 01 3d 5c 42 19 bd 29 58 fe 3b
       0.06318611 0.031717863 -0.0374168 0.0077619744
0000a0 3c 0c a2 bd f7 99 2c bd 46 3c 58 3d 18 96 11 3c
       -0.0791249 -0.04213902 0.052791856 0.008885883
0000b0 92 0a 9e 3c d7 e5 6c bd 46 95 96 bd c8 52 e2 bc
       0.01929215 -0.05783638 -0.073526904 -0.027627364
0000c0 c4 af b0 3c 31 24 ad bc 6b b9 7a bd eb f9 a0 3d
       0.021568187 -0.021135421 -0.061211985 0.07860168
0000d0 94 ae f2 3c 58 e1 6c 3c f0 08 5d 3d 0c ff 06 bc
       0.029624261 0.014458023 0.0539636 -0.008239519
0000e0 52 e1 cb 3b e2 66 46 3d 5e 6c 6f bb 0b 99 d7 bc
       0.0062219286 0.04843796 -0.0036533098 -0.026318094
0000f0 f3 de 80 3b 52 37 b3 bc 5b 40 01 bd 43 b9 35 3b
       0.0039328276 -0.021876965 -0.031555515 0.0027728833
000100 6c 7a 8e bc 4c 9c 6d 3d ab 3e 33 bd 29 db 93 3b
       -0.01739236 0.058010384 -0.043760937 0.00451221
000110 28 ac 86 3d b5 82 08 3d 8d 82 4a 3d c4 e0 92 bd
       0.06575805 0.033327777 0.04944091 -0.07171777
000120 72 74 9f bd e9 4a a7 3d 2e 27 56 3c 52 85 44 3d
       -0.07785882 0.08168585 0.013070865 0.047978707
000130 9c bf da 3c fa 23 41 bd 29 3d 2d bd 7d 9b 04 bd
       0.026702695 -0.04715345 -0.042294655 -0.032374848
000140 d3 de 92 bd 15 b7 64 bd 07 2f a3 3c dc 3b 68 bc
       -0.071714066 -0.055838663 0.019919885 -0.014174428
000150 a6 fc 85 bd 77 df 66 3d e3 20 3c bd 2a 8e d4 bb
       -0.065423295 0.056365456 -0.0459298 -0.006486674
000160 b0 e9 5d 3d 24 59 a6 3d d2 6b 1a bc 85 4c 01 bd
       0.05417794 0.08122471 -0.00942512 -0.031567115
000170 c8 5a a1 bd 8e 1a 4b bd a3 30 19 3d 20 c4 b1 3d
       -0.07878643 -0.04958587 0.0373999 0.08679986
000180 62 bc 14 3d 19 92 9d bd e8 d2 93 3d 8f eb a0 3d
       0.03631247 -0.076938815 0.072179615 0.07857429
000190 2e 81 c6 3c ce a0 47 bd 6e 5d b0 3c 43 3b 01 bd
       0.02423152 -0.04873734 0.021528926 -0.031550657
0001a0 46 5a 97 3d 70 8e e3 3c c0 ca 6c bd 5a 0e 89 3d
       0.07390265 0.02777788 -0.057810545 0.066921905
0001b0 8a 70 85 bd 4e 93 0a 3d fd 5a ab 3d 9d f5 5c bd
       -0.06515606 0.033831887 0.08366964 -0.053945173
0001c0 cf 03 03 3d 54 92 13 bc 5c 59 98 3b 42 e0 a1 bb
       0.031986054 -0.009007055 0.0046493243 -0.0049400637
0001d0 e8 5e 91 3d af d0 5d bd 41 a0 bc 3c 49 3d b7 3b
       0.0709818 -0.054154094 0.023025634 0.0055920226
0001e0 2a 54 81 bd 28 9a 98 bd 83 52 20 bd 97 6d 8c 3d
       -0.06314881 -0.07451278 -0.03914119 0.0685684
0001f0 80 d8 9b 3d 0b 1e 24 bd 7d 0f 1e bd 88 46 d3 3c
       0.076096535 -0.040067714 -0.03858899 0.025790468
000200 ee 90 3e 3d 3d b3 aa bd e4 f9 3e bc f9 38 64 bd
       0.046524934 -0.08334968 -0.011656258 -0.055718396
000210 7e b0 c1 bc 11 ae 07 3d a6 95 55 bc 0f a2 83 3c
       -0.023643728 0.033124987 -0.013036167 0.016068486
000220 85 24 73 3d 12 c7 f9 3c 8a 15 30 bd bb c6 a6 bd
       0.059361 0.030490432 -0.04298929 -0.081433736
000230 84 0b 13 bd d0 5e 60 bc 60 f6 9a bd b2 c7 1f bd
       -0.035899654 -0.01369448 -0.075665236 -0.039008804
000240 b4 48 2e bd 44 8b 7f bd 36 5d b0 3c 71 7f a7 bc
       -0.042549804 -0.062388673 0.021528821 -0.020446511
000250 dd 04 c1 bc 22 97 9d 3d ec d1 b5 bc 07 50 a6 3c
       -0.02356189 0.07694842 -0.022194825 0.020301832
000260 de de 3c bd 3e e8 c1 3c af 13 60 bd 40 da 80 bd
       -0.04611098 0.023670312 -0.05470627 -0.06291628
000270 06 4c 05 bd ca 6e 47 bd 1d 0d 6e 3d 40 ed 8c 3d
       -0.032543205 -0.04868964 0.058117975 0.06881189
000280 95 17 0a bc 5c cf df bb ab 12 a5 3c c1 f2 91 3d
       -0.008428474 -0.006830139 0.020150503 0.0712638
000290 fc 86 8c 3c 9c 9e 25 3c 29 f7 90 bd 8b d8 1d 3c
       0.01715421 0.010108616 -0.07078392 0.009634147
0002a0 c2 57 57 3d 66 35 8f bd c5 be 79 bd 69 3f 3f 3d
       0.052573927 -0.06992607 -0.060972948 0.046691332
0002b0 e3 83 70 bd 77 23 a4 ba d4 d4 15 3b 86 93 00 bd
       -0.058719527 -0.0012522776 0.002286245 -0.03139069
0002c0 31 66 7c 3d ee 28 1f 3d 69 ac 70 bd 21 81 fe 3c
       0.061620895 0.038857393 -0.058758173 0.031067433
0002d0 96 fa 9c bd 43 74 44 39 9d 5e 4f bd 4a 84 0a bd
       -0.07664983 0.00018735327 -0.05062734 -0.033817567
0002e0 b4 6d a6 bc 8c a8 61 3d fa 73 95 3d 74 89 c0 3c
       -0.020315982 0.05509238 0.072975114 0.023503043
0002f0 1f d2 f4 3c f3 c4 1e bd 62 d8 d1 bc 3b fb 9a 3c
       0.02988535 -0.038762044 -0.025615875 0.018918624
000300 db 3c 63 bd 79 ff 7b bc b3 97 c1 b9 f8 7d a5 bc
       -0.05547796 -0.015380734 -0.00036924853 -0.020201668
000310 7c 62 05 bd 56 dd 8d 3c cf 54 78 bd 66 2c a1 bd
       -0.032564625 0.017317455 -0.060627755 -0.078697965
000320 3d c1 f0 3c 83 59 6c 3d 8b a3 41 bb 57 f2 0f 3b
       0.029389018 0.057702553 -0.0029546942 0.0021964514
000330 a9 cc 14 3d cf 1b d0 bb 80 82 89 bd fb 96 a4 bd
       0.03632799 -0.0063509713 -0.06714344 -0.0803661
000340 dc 25 4d bd 26 3f 38 3d eb 2a 9c 3d be b9 b2 bd
       -0.050084934 0.044982098 0.076253735 -0.08726834
000350 3a b2 19 bd 8c 56 21 bd 2b 84 73 3c da 02 a8 3c
       -0.037523486 -0.03938918 0.014863054 0.020509172
000360 44 b4 55 3d 09 f5 5d 3d 53 7d a4 3d c7 43 bc 3b
       0.052173868 0.05418876 0.08031716 0.0057453844
000370 20 e4 47 bd 87 2a 82 3d 0a 7f 93 3c 11 16 45 bd
       -0.04880154 0.06355768 0.018004913 -0.048116747
000380 e7 56 01 bd 85 d5 cb 3c 66 a8 31 bc 2a 92 80 3c
       -0.031577017 0.024882087 -0.010843372 0.015694696
000390 e4 f1 b3 3d 57 1c a6 3a c6 99 94 bd 01 c3 29 3c
       0.08786371 0.0012673241 -0.072558925 0.010361434
0003a0 48 7a aa 3d 26 54 7c bb ea bc 29 bd ad 6f 6c 3d
       0.083241045 -0.0038502305 -0.041439928 0.05772369
0003b0 62 06 b0 3d b6 0a 9e 3d db d5 37 3d 37 bb b4 3d
       0.085949674 0.07716887 0.044881683 0.08824771
0003c0 66 98 f5 3a f7 01 3e 3c 34 36 6c bd a2 02 45 3d
       0.0018737435 0.011597148 -0.05766888 0.048098214
0003d0 56 f6 a8 3d 10 7c 7f 3c ed a6 b2 bd 39 f4 9c bd
       0.0825011 0.015593544 -0.08723245 -0.07663769
0003e0 06 48 20 bd 23 bb d7 bc 73 62 a5 3d 54 2d 3e bd
       -0.039131187 -0.02633435 0.08075418 -0.046429947
0003f0 54 96 7a 3d 00 2b 99 3d 90 ec f6 3c 9c 6d 96 3c
       0.06117852 0.07478905 0.030142099 0.018362813

lstm.bias_ih_l0 f4 [512]
000000 97 43 8c bd 42 42 be 3f c1 66 20 3e 8e 67 2b 3f
       -0.06848829 1.486397 0.15664198 0.66954887
000010 82 c3 ad 3e 08 39 8c 3e 0b a8 7a bd 17 c9 e5 3e
       0.33938223 0.2738726 -0.061195415 0.44879982
000020 d2 d1 05 3d c4 f9 2f be c0 be ab 3f ad 77 bd 3e
       0.032670803 -0.17185122 1.3417587 0.37005368
000030 71 e2 3d be 49 70 16 3f 8b fb 13 3f 2c 58 28 3f
       -0.18543412 0.58765084 0.578057 0.6575954
000040 59 e9 89 3e 54 65 f6 3c 79 67 d6 3c ba 51 d0 3e
       0.26935843 0.030077614 0.026172386 0.40687352
000050 85 ba b8 bf 30 1c cb bd 71 a6 76 3e a4 b1 50 3f
       -1.4431921 -0.09917486 0.2408693 0.8152106
000060 fa 1b 6d 3f 8b 2a ce bd c8 43 9d 3d 92 ed 57 3f
       0.92620814 -0.10066708 0.07678944 0.8434688
000070 ba f8 78 3e 84 4f c1 bd f3 e3 ac 3f c4 39 be 3e
       0.24313632 -0.094389945 1.3507065 0.37153447
000080 12 2c f7 3d bd 38 80 3d 52 81 45 bf 23 88 99 3e
       0.120689526 0.06260822 -0.7715045 0.29986677
000090 52 37 35 3f da df 13 3f b6 59 24 bf 37 91 da 3e
       0.7078754 0.57763445 -0.6419939 0.42688915
0000a0 af 77 24 3f 6f 09 04 bf 29 7a 58 bf b7 33 15 3f
       0.6424512 -0.51576895 -0.845614 0.58282036
0000b0 11 ff b0 3f 91 1c 92 be 46 56 7a 3d aa c7 cc bf
       1.382784 -0.2853742 0.061117433 -1.5998433
0000c0 2b 19 1e bf e5 a4 84 3d 5d fb 24 bf d1 f3 e5 be
       -0.61757153 0.06476764 -0.6444605 -0.4491258
0000d0 9e 29 e0 3e 46 10 81 bf ae e2 8d be 86 bc 7e 3e
       0.4378175 -1.0083091 -0.27712005 0.24876603
0000e0 87 34 b6 3e 74 e1 11 bf 77 96 4d be 83 41 2d bf
       0.3558695 -0.5698464 -0.20076929 -0.6767809
0000f0 be 0c a0 3f d2 10 35 bf f1 a0 5c 3f e8 4c b2 3d
       1.2503889 -0.7072879 0.8618308 0.08706075
000100 c1 7d e4 3d f1 53 f2 be 8a b9 c0 3e 94 9f dd 3d
       0.11156798 -0.47329667 0.37641555 0.10821453
000110 43 b2 6f 3f 0e bb ad be 06 a3 60 3f 21 7d 1f bf
       0.9363138 -0.33931774 0.87748754 -0.62300307
000120 f4 af 36 bf cf d7 0c bf 0b 90 79 3e 0a c8 e5 bd
       -0.71362233 -0.550168 0.24371354 -0.11219795
000130 5a 32 45 bf c9 43 29 3d 2e 46 bf be aa cf 74 3e
       -0.77029955 0.04132441 -0.3735823 0.23907343
000140 89 6c 99 3f 39 9b 54 be d0 0c 0e 3f d0 81 49 3f
       1.1986247 -0.20762338 0.554883 0.78713703
000150 74 e4 25 3e 0d 08 6d 3d db ed d9 3d 39 3c da 3e
       0.16200429 0.057869006 0.106410705 0.4262407
000160 ec 06 e2 3e 69 d8 da be 4c 06 5c bf d7 c0 6a 3f
       0.44145906 -0.42743233 -0.8594711 0.917005
000170 42 0b b8 3e d3 c6 eb 3f 94 9f d4 3e 83 37 27 3e
       0.3594609 1.8420051 0.41527998 0.1632977
000180 d7 53 b1 3f 0e ff d0 3e 38 37 c4 3e 34 25 28 3f
       1.3853711 0.4081959 0.3832338 0.6568177
000190 b4 7f f7 3d 28 b5 5e 3f 24 93 a4 be 75 75 91 3f
       0.12084904 0.8699517 -0.3214351 1.136397
0001a0 3f d0 15 3f 0e 12 4b 3f 4e f4 9a 3f 3f ea e7 be
       0.58520883 0.79324424 1.2105806 -0.45295903
0001b0 2c 57 a8 be c0 ba 2b bf 16 ae d5 3f 45 24 7a 3f
       -0.32879007 -0.6708183 1.6693752 0.9771159
0001c0 04 29 c8 bf a5 9f 35 3e 0d 1e a1 3f 26 83 92 3f
       -1.5637517 0.17736681 1.2587296 1.1446273
0001d0 61 7c 19 be f1 ca 02 3e 83 97 79 3e 31 ed 80 bd
       -0.14988853 0.12772729 0.24374203 -0.06295241
0001e0 8d e2 16 3f a1 ca 76 3f c6 e4 5e 3f 46 8e 99 bf
       0.5893944 0.9640294 0.8706783 -1.1996543
0001f0 44 dd 75 be 72 39 98 3f f0 c9 e6 bf 41 30 1f bf
       -0.24010187 1.1892531 -1.8030376 -0.62183005
000200 49 b6 9f 3d ab a4 fc 3c c3 7d c4 3c eb 4e a2 3c
       0.0779844 0.030840239 0.02398575 0.019813022
000210 81 d1 ae 3d f2 bf b3 bd 9d 28 11 3d 86 f0 7d bc
       0.085360534 -0.08776845 0.035439122 -0.01549924
000220 50 ee 3e bc da 79 b2 bd 63 ee a8 3b 13 8e b7 b9
       -0.011653498 -0.087146476 0.005155371 -0.00035010334
000230 28 bf a2 3d 81 2b 0c bd 87 88 50 3d 32 7e 5b bd
       0.079466164 -0.034221176 0.050911453 -0.053587146
000240 ec 2e 4c bd 9d 90 9c 3d 4c be 87 3d 9e 36 08 3c
       -0.049849436 0.0764477 0.06628093 0.008313803
000250 36 3b 84 bc e2 10 5b 3d dc 45 a3 3d 01 1a be 3b
       -0.016141515 0.053482898 0.07972309 0.0058014398
000260 ab be 5c bd 1b 97 4d bc 3c 40 ab 3d 97 6b f0 3c
       -0.053892773 -0.012548233 0.08361861 0.029348178
000270 fc 72 9b 3d 65 a7 86 bd 76 36 88 bd 0c 9d 85 3d
       0.07590291 -0.06574897 -0.066510126 0.06524095
000280 2e bb ba 3c a4 5d 54 3c b4 ea 91 bd c9 8c ae bd
       0.022794332 0.012961779 -0.07124844 -0.085229464
000290 fb d2 7f bd 34 18 8c 3d 22 63 8f 3d 88 3c 51 bc
       -0.062457066 0.06840554 0.0700133 -0.012770779
0002a0 91 87 82 bb 32 4d a0 bd f0 57 54 bd 09 a4 27 3c
       -0.003983446 -0.07827224 -0.051841676 0.01023198
0002b0 5c dc 51 bd 5d a3 9c bd b1 d0 93 bd 09 9a 79 3d
       -0.05123554 -0.076483466 -0.07217539 0.060937915
0002c0 d3 09 96 bd e6 e0 8c bd 70 81 08 3d cb 5f fc 3c
       -0.073260926 -0.068788335 0.033326566 0.030807396
0002d0 4b e7 93 3d 5e 3e 53 3d 8b 65 05 3c 32 f0 89 3d
       0.0722185 0.05157315 0.0081418855 0.06735267
0002e0 e9 ca af 3d e5 23 7d bd a0 32 a0 3c 19 52 82 bd
       0.08583624 -0.06180181 0.01955539 -0.06363315
0002f0 20 c1 a5 3a 56 7b 76 3d 6f 08 84 bd 9e 7f 16 bd
       0.0012646057 0.060176216 -0.06446921 -0.0367428
000300 47 63 8a 3d 31 a5 d8 bc ec c3 5d 3d 51 3c aa 3b
       0.06757217 -0.026445957 0.054141924 0.0051951786
000310 be 79 7b bd a4 5f e2 39 b3 a3 8f bd 17 fa 3c 3d
       -0.0613954 0.00043177337 -0.07013645 0.04613694
000320 e0 c2 82 bc 70 48 43 3d 14 87 0d 3d 7c ca a8 3d
       -0.015962064 0.047676504 0.03455265 0.08241746
000330 50 58 0d bd c2 48 8c bc 37 4c 9a bd 8b a1 99 3b
       -0.03450805 -0.017124537 -0.07534068 0.004688447
000340 f6 98 a7 bd f1 5a 95 bc 2e 2a 14 3c 98 f2 02 bd
       -0.08183472 -0.01823184 0.00904326 -0.031969637
000350 0e 37 44 bc e6 cd 57 3d 78 7f ae 3c b1 5e a3 3d
       -0.011976017 0.052686594 0.021301016 0.07977045
000360 cd cb 87 bc 4a 68 08 3b 3b d7 2e 3d 82 2b 8e 3d
       -0.016576672 0.0020814114 0.04268573 0.06941892
000370 8e 6f 16 bd 36 21 22 bd 42 8c e2 bc 46 dd 69 3d
       -0.03672748 -0.039582454 -0.02765477 0.05709579
000380 49 b2 2b bb 6a 76 83 3d bb 2c e6 bc 1f d1 34 bd
       -0.0026198796 0.0641907 -0.028097501 -0.044144746
000390 cf fd ad 3d 64 4f 36 bc bb 10 c1 3b 33 9d 70 bd
       0.08495676 -0.011127327 0.005891887 -0.058743667
0003a0 fa e8 94 bd d6 c1 9f bd 59 5a 5c bd fe ea 72 bc
       -0.07270999 -0.07800643 -0.0537971 -0.014826534
0003b0 76 1f cb bc 73 cc 64 3d 3d 95 b2 bd 08 fe c5 3b
       -0.024795275 0.05585904 -0.08719871 0.006042246
0003c0 2b 7e 04 bd 3c e5 2d 3c 56 c2 15 bd c8 f2 11 3d
       -0.032346886 0.010613736 -0.036562286 0.035631925
0003d0 a2 85 7a bd ee 18 99 3d b2 87 b1 3c 67 c3 48 3d
       -0.0611626 0.07475458 0.02167115 0.049014475
0003e0 36 70 52 bd fb b2 93 3d 53 7d 81 bd 11 c6 a4 3d
       -0.051376544 0.07211872 -0.06322732 0.08045591
0003f0 93 78 95 bd 92 94 76 3d 20 d8 c7 3c b9 0c 10 3c
       -0.07298388 0.06020028 0.024395049 0.008792096

lstm.bias_hh_l0 f4 [512]
000000 94 9a a5 bd 32 7b c1 3f 8a b5 81 3e 66 1d 2c 3f
       -0.08086124 1.5115721 0.25333816 0.6723236
000010 73 45 a5 3e cb 5f d2 3e c4 8a 4d 3b 3a eb c6 3e
       0.32279548 0.4108871 0.0031363228 0.3885134
000020 4a 57 ed 3d de 09 8d be c9 1c bf 3f 18 b4 9e 3e
       0.11588915 -0.2754659 1.493066 0.30996776
000030 f2 23 6c be 26 32 18 3f 7b 14 11 3f aa 0a 4f 3f
       -0.23060587 0.5945152 0.56671876 0.8087565
000040 33 cd 72 3e eb 63 ed 3d 59 ad a8 bd 35 6a a0 3e
       0.2371109 0.115913235 -0.082361884 0.3133103
000050 92 55 a9 bf 60 2d 1b be 68 6b 55 3e 4f ea 3c 3f
       -1.3229239 -0.15154028 0.20841753 0.73795027
000060 6a cb 63 3f a2 23 d1 bd 35 95 db 3d 70 c3 4c 3f
       0.8898226 -0.102118745 0.10721818 0.79985714
000070 15 18 2b 3e 27 95 64 be 30 7a a1 3f ce 84 c7 3e
       0.16708405 -0.22322522 1.2615414 0.3896851
000080 84 a0 6f 3d 20 a8 c7 3c 13 60 42 bf 65 8e bc 3e
       0.05850269 0.02437216 -0.7592785 0.36827388
000090 fa 1f 32 3f d0 86 13 3f 25 5c 01 bf 43 ba fc 3e
       0.6958004 0.5762758 -0.50531226 0.49360856
0000a0 b5 d0 11 3f da 76 d9 be 40 f8 3d bf 66 46 16 3f
       0.56959087 -0.4247349 -0.74206924 0.5870117
0000b0 7d fd b3 3f 65 e5 98 be bb 09 b0 3d e0 70 c7 bf
       1.4061733 -0.29862514 0.08595606 -1.5581322
0000c0 fc 3a 1b bf d5 c6 03 3c 6a bd 17 bf 25 31 99 be
       -0.6063688 0.008043011 -0.592734 -0.29920307
0000d0 b8 60 d7 3e 53 3d 83 bf 5f 82 a6 be d2 2a 82 3e
       0.42065978 -1.025309 -0.3252134 0.25423294
0000e0 b5 7e b0 3e 49 85 22 bf 19 be 87 be 48 e0 16 bf
       0.3447167 -0.63484627 -0.2651222 -0.58935976
0000f0 57 7a a2 3f 1b db 4f bf 23 4a 83 3f af 44 03 3e
       1.2693585 -0.81193703 1.0257 0.1281917
000100 44 16 17 3e 9c ca 13 bf a8 ba c0 3e e5 35 67 3e
       0.14754587 -0.5773103 0.37642407 0.22579153
000110 50 fe 58 3f 4f d7 d4 be 2d d3 43 3f bb f6 fd be
       0.8476305 -0.41570517 0.76494104 -0.49602303
000120 49 aa 55 bf 32 0e 05 bf 3a 6a 83 3e 9c 85 51 be
       -0.8346296 -0.51974785 0.25666982 -0.20461124
000130 89 72 48 bf 0e 47 a6 bd e8 ac 07 bf 29 b0 73 3e
       -0.78299767 -0.08119021 -0.5299821 0.23797669
000140 35 63 88 3f e5 8e 38 be a2 d0 03 3f 64 a7 3f 3f
       1.0655276 -0.1802326 0.51490223 0.7486479
000150 33 8f 2f 3e a9 6b 7d bd ed 1c d8 ba 1d 46 e8 3e
       0.1714447 -0.06187025 -0.0016488113 0.45365992
000160 fa 25 ed 3e 95 25 be be 18 6c 53 bf 07 60 66 3f
       0.46318036 -0.37138048 -0.8258681 0.89990276
000170 48 76 a3 3e 7e f2 e3 3f 46 95 ca 3e 29 b5 88 3e
       0.3192618 1.7808378 0.39567012 0.26700714
000180 a6 34 b6 3f f0 b9 ce 3e f0 a5 01 3f 63 3f 29 3f
       1.4234817 0.40376234 0.50643826 0.66112345
000190 06 70 ec 3d 09 3f 5a 3f 6f 9a db be 45 bc 92 3f
       0.11544804 0.85252434 -0.4289126 1.1463705
0001a0 22 3a 24 3f ab 70 43 3f 19 51 90 3f cd 69 fb be
       0.64151204 0.7634379 1.1274749 -0.49104157
0001b0 b3 e3 b0 be 56 ce 26 bf 05 01 d4 3f 9a 94 8c 3f
       -0.3454872 -0.65158594 1.6562811 1.098285
0001c0 96 a0 bd bf 1a b8 20 3e e2 da af 3f 60 66 91 3f
       -1.4814632 0.15695229 1.3738673 1.1359367
0001d0 c5 8c 66 be 88 90 a5 3d 4f 6f b7 3e 58 9b 83 bd
       -0.22514637 0.08084208 0.3582711 -0.06426114
0001e0 d1 1f 25 3f d2 8e 60 3f 45 98 74 3f ab a7 98 bf
       0.64501673 0.87717927 0.95544845 -1.1926168
0001f0 02 b3 95 be 03 64 9b 3f 90 27 e9 bf 51 64 26 bf
       -0.29238135 1.2139896 -1.8215199 -0.6499682
000200 ae 10 84 bd 0e 7c ac 3c ae cf 8e 3d 19 38 21 3d
       -0.06448494 0.021055248 0.069732055 0.03936014
000210 ee b4 31 bd fe 75 a5 3b 7a e2 87 bd 40 a2 99 bb
       -0.04338544 0.005049466 -0.06634994 -0.004688531
000220 4b 86 89 bd 6a 70 a1 bd 33 3b 3f 3d f6 db 4d 3c
       -0.067150675 -0.078827694 0.046687316 0.01256465
000230 1f 35 4a 3c 9c cd a5 bd 08 27 ea 3c 26 35 9f 3d
       0.012341767 -0.080958575 0.028583065 0.07773809
000240 77 36 95 3d a7 df 14 3d 52 5c ab bd b1 00 a0 bd
       0.07285779 0.036346104 -0.08367218 -0.07812632
000250 d4 45 7c 3d c4 fb 9b bd 65 d4 ad bc cf 18 9e bd
       0.06159003 -0.0761638 -0.021219442 -0.077195756
000260 b3 c2 df bc f4 86 ac bd 89 66 1f bd 8e 97 3b 3d
       -0.02731452 -0.08424178 -0.038916145 0.04579883
000270 97 4f 6c 3d e5 0f 90 bd 0d be af bd 60 e4 ac 3d
       0.05769309 -0.07034282 -0.08581171 0.084419966
000280 0a b5 01 3d 68 fd 59 3d ab 37 73 bc 11 22 3f 3c
       0.031666793 0.053220183 -0.014844815 0.011665837
000290 3f a3 b2 3d 95 03 eb 3c 58 61 8d bd 46 b9 9e 3c
       0.08722543 0.028688231 -0.069033325 0.019375455
0002a0 3c e0 71 3c 22 0e 4c 3c e2 b1 96 3d bc c8 49 3d
       0.014762934 0.012454541 0.07358147 0.0492637
0002b0 21 d1 99 3d 12 b5 16 bc 4a eb 9c 3c b1 a6 41 bd
       0.07510591 -0.009198444 0.019155163 -0.04727811
0002c0 f5 88 89 bd 2f 4c 47 3d 12 5f 29 3d 3a 6b 63 3d
       -0.067155756 0.04865664 0.04135043 0.05552218
0002d0 cb 5b 2e bd d0 cf 11 bd 34 5b e6 3c 05 1e 0b bd
       -0.04256801 -0.035598576 0.02811966 -0.033964176
0002e0 a5 d3 97 3d 4b 57 31 3d 91 55 5c 3d 6b ec 69 bd
       0.07413415 0.04329614 0.05379254 -0.05711023
0002f0 99 6a 95 bd dd a0 98 bd 78 e9 06 bd 87 ae 06 3a
       -0.072957225 -0.07452557 -0.032937497 0.0005137701
000300 5a e0 8b 3c 2c 6a a4 3d 01 74 a6 bd 44 b1 93 3b
       0.017074753 0.08028063 -0.08127595 0.0045072157
000310 0f cc 8c 3c 89 3c 31 bd 08 38 84 3d 8e ba 72 3c
       0.017187146 -0.04327062 0.064559996 0.014814986
000320 ae 7e aa 3d bf 5a 25 3d ff 8a de bc c0 ce 90 bd
       0.083249435 0.040369745 -0.027165888 -0.070706844
000330 c3 86 95 bc eb 70 74 3c 52 56 c0 bc 3e 52 96 3d
       -0.018252736 0.0149195 -0.02347866 0.07339905
000340 08 fb aa bd cb 21 fb 3c 7d aa 05 bb 53 3d a7 3d
       -0.08348662 0.030655762 -0.0020395808 0.081659935
000350 67 a1 4d 3d e1 80 01 3c 0c 86 cd ba 37 ec ad bb
       0.050202753 0.007904262 -0.0015680208 -0.0053077
000360 53 94 7f bc 08 ff 1c bd 5a 77 4b bd 5d 49 76 3d
       -0.015599328 -0.038329154 -0.04967437 0.06012856
000370 3f 68 99 bd fc a9 e5 bc 30 38 f1 3c 51 0d 7a bc
       -0.074905865 -0.028035156 0.029445738 -0.015261964
000380 4d 41 1f 3b 3f dc 6d bd 9a c7 b0 bd 74 e2 95 bd
       0.0024300397 -0.05807137 -0.08631821 -0.07318583
000390 5d 04 a6 bd 2e ae 50 bc f2 db 76 bd fb 1d 14 bd
       -0.08106301 -0.01273684 -0.06026835 -0.036161404
0003a0 08 3e 99 3d 9e 88 4e bd 35 c4 92 3c 1a d5 f9 ba
       0.07482535 -0.050423257 0.017915824 -0.0019060702
0003b0 1a d8 28 bd 61 3e d7 bc 84 70 9c bd 3c 66 7a bb
       -0.041221716 -0.026274862 -0.07638648 -0.003820791
0003c0 39 ec 23 3c 35 f3 2d bd f9 f9 85 3d c9 36 95 3d
       0.01000505 -0.04246827 0.06541819 0.0728584
0003d0 eb af 93 bc 0b 3b 28 3c 2c 39 d5 bc 84 d5 3b 3d
       -0.01802822 0.010267983 -0.026028238 0.04585792
0003e0 4c 01 fe 3c 7f 7b f9 3c 96 cc 91 3d a0 41 2b bd
       0.031006478 0.030454395 0.071191 -0.04181063
0003f0 81 74 2b bc b5 71 18 bc fb 05 43 bd 27 a6 43 bd
       -0.010464788 -0.009304454 -0.047613125 -0.047765877

fc.0.weight f4 [128, 129]
000000 a6 ad 01 3e 68 68 65 bd 2c 3a e8 3d e7 bf 4a be
       0.12663898 -0.056007773 0.113392204 -0.19799767
000010 82 fa ea bd 5f 74 a5 3c 25 70 8a bd fd 8a 11 3e
       -0.11473562 0.020197092 -0.06759671 0.14213176
000020 1e 1c e0 3d 56 19 cb bd ae d7 de 3c 67 6a fd 3d
       0.10942863 -0.09916942 0.027202453 0.1237381
000030 dd 33 91 bd a0 0e 88 3e 52 f3 e1 3d b5 f9 80 3e
       -0.0708997 0.26573658 0.11032738 0.2519051
000040 3c 7a d2 bc e3 54 16 bc db 4f 41 3d 0c 64 60 be
       -0.025693052 -0.009175512 0.047195297 -0.21913165
000050 a4 c4 82 bd 17 fa d2 3c a3 51 32 3e a5 6e 33 3c
       -0.063851625 0.025754018 0.17413954 0.010951673
000060 91 fd 7e bc 45 74 e1 bd 77 d9 b0 bc 18 c7 91 bd
       -0.015563385 -0.11008505 -0.02158807 -0.07118052
000070 58 49 0b bc 0c e0 1e 3e 00 26 24 be d2 6e 07 3e
       -0.008501373 0.15515155 -0.16030121 0.13225868
000080 82 00 00 be 21 9a a9 bd 50 a8 b9 3a 8f ac e4 3c
       -0.12500194 -0.08281351 0.0014164541 0.027914314
000090 34 50 b2 bd 8f 7d 24 3e 16 7b 5b bb 32 a8 1a 3e
       -0.08706704 0.16063522 -0.0033490113 0.15103224
0000a0 a2 bd 35 bc 53 d1 1f 3c 8f 5e f0 bc 33 9e 23 be
       -0.011092575 0.009754497 -0.029341964 -0.15978317
0000b0 eb 06 0c 3e ae a4 7d bd f9 49 a3 3d a7 b8 e2 bd
       0.13674514 -0.06192463 0.079730935 -0.11070376
0000c0 d5 7c a7 bc 2a 62 2b be 77 77 39 bd 19 fd 61 3c
       -0.020445267 -0.16736665 -0.045279946 0.013793253
0000d0 a5 97 03 3e c3 6f 97 bd 65 1a 84 bd ba c7 6f bd
       0.12850817 -0.07394364 -0.06450347 -0.058540083
0000e0 a1 13 c5 bd 35 71 da bb f9 36 12 3c 0b 65 17 be
       -0.096228845 -0.0066663274 0.008924239 -0.14784639
0000f0 de 58 c0 bc a8 e2 96 38 e6 7a 79 bd c6 2d 96 3d
       -0.023479875 7.1947754e-05 -0.06090822 0.07332949
000100 47 7f de 3d 44 08 97 bd 3c ec cd 3b e2 ab 7a bd
       0.1086412 -0.073746234 0.006284265 -0.061199076
000110 f5 50 a4 3d 5f 74 22 bc d2 8a 0d bd c1 f1 57 3d
       0.08023254 -0.00991544 -0.034556217 0.05272079
000120 65 f6 85 bc 42 96 9c bc ad 0e f4 3d 77 21 e7 3d
       -0.016352842 -0.019114617 0.11916862 0.1128568
000130 e2 71 9c bc 77 2b b7 bd 1b 44 93 bc 7e a7 ee 3d
       -0.019097272 -0.08943837 -0.017976811 0.1165304
000140 09 bf 24 be 22 c8 a4 bd f1 98 33 be d4 e3 28 3c
       -0.16088499 -0.08045985 -0.17538811 0.010308225
000150 b3 c2 52 3d b1 f7 dd bd 0a 29 cf bc b5 52 c6 3c
       0.05145521 -0.10838259 -0.025288124 0.02420936
000160 eb 2a 37 3a 15 94 3d bc e6 ad ca bd bc 16 8e 3a
       0.0006987291 -0.01157095 -0.0989645 0.0010840516
000170 d3 52 d6 3d ff 10 b0 3d 70 b0 eb bc 6a c0 2a 3d
       0.10465016 0.08596992 -0.028770655 0.041687407
000180 97 ef 80 be ef 1e b5 bd bb d4 2b bd cf 0f e3 bd
       -0.25182793 -0.08843791 -0.041950922 -0.110869996
000190 2d 3d 14 3e 26 65 9c bd 66 9d 1c 3e 22 e9 98 3d
       0.14476462 -0.0763648 0.15294418 0.074663416
0001a0 93 de 28 be f9 35 e1 3d 4b a2 78 3d 4a 4d 59 bc
       -0.16491155 0.109966226 0.06070165 -0.013263056
0001b0 56 16 7a bd d9 71 c2 bd 02 47 30 3e 3f ab 90 bd
       -0.061056457 -0.09494371 0.17214587 -0.070639126
0001c0 b1 09 16 3c 22 09 2c 3e e1 02 0f 3e 77 c5 d0 bd
       0.009157584 0.16800359 0.13965942 -0.101939134
0001d0 81 8f f7 3c 59 19 51 bb 75 e1 bb bd 3a 63 41 3e
       0.030219795 -0.0031905978 -0.09173862 0.18885508
0001e0 5d 34 dc bc e5 0f c6 bc 1f f7 a5 bb 82 3a 89 3d
       -0.026880438 -0.024177501 -0.0050648595 0.067006126
0001f0 69 d6 10 bd d9 51 b9 bc 39 96 bb 3d 15 e9 84 bd
       -0.035360727 -0.022622036 0.09159512 -0.06489769
000200 25 61 ed 3b b1 d9 76 bc aa f8 2b bd 41 6a 95 bc
       0.0072442465 -0.01506655 -0.04198519 -0.018239142
000210 5d 1b c3 3d e5 e1 eb bc 01 af 14 bd df 1b 68 3d
       0.095267035 -0.028794238 -0.03629971 0.056667205
000220 db ca 9d bd 9d a8 5c bd fd 66 1f bd 39 ec 80 3d
       -0.07704707 -0.05387174 -0.038916577 0.06295056
000230 ff 73 38 bc fd 24 4c 3d 95 7f 8c bd 11 99 be 3c
       -0.011258124 0.049839962 -0.06860272 0.023266347
000240 51 b5 4c 3d c5 92 dd 3c 5a f2 2f bc 99 6d e8 3c
       0.049977604 0.027047524 -0.010738933 0.028372573
000250 6a 5a dc 3c 99 5c 35 3d 97 5d 7b 3c e1 ef 3e bd
       0.026898582 0.04427776 0.015342138 -0.046615485
000260 88 bf 20 bd b5 71 0d bd e7 1a 79 3c f8 ce 07 3d
       -0.03924516 -0.034532268 0.015204168 0.033156365
000270 93 2d d2 3c ba e3 c5 bd dc e7 7c bb e5 fd 9a 3d
       0.025656497 -0.09662576 -0.0038590347 0.07567958
000280 55 4f 54 3d d3 62 86 3c ca 28 a7 3d c8 ce 4b bd
       0.05183347 0.016404545 0.08162077 -0.04975775
000290 43 4c c4 bd b4 dc b0 3d 05 56 bb bd f0 2b 4e 3d
       -0.09584858 0.08635846 -0.09147266 0.05033487
0002a0 be 35 b3 bd c2 63 0f 3d 87 ad d9 bd 95 b3 b7 bd
       -0.08750485 0.035007246 -0.10628801 -0.089697994
0002b0 a7 4a a5 3d 1a 5c 19 3d d3 88 9c 3d ef 37 86 bd
       0.080708794 0.03744135 0.07643285 -0.06553637
0002c0 45 8b 80 bc 5b 1c 1f 3d 08 13 0c bd 3e 1b bc 3d
       -0.015691409 0.0388454 -0.034197837 0.091848835
0002d0 50 94 37 3d b1 f3 b7 bb c0 8d 65 bc 22 3e 8b 3d
       0.044819176 -0.005613767 -0.014010847 0.0679896
0002e0 08 cc 4a bd 28 46 17 bd 6e a4 61 3c 53 9a 59 3d
       -0.049510986 -0.03693214 0.013772113 0.05312569
0002f0 97 70 67 bd e4 1f ea 3c 24 00 b3 3d c3 2e 8f 3d
       -0.05650386 0.02857966 0.08740261 0.06991341
000300 4e fd 4e 3d 48 20 45 3d 60 f3 95 3d 46 77 b9 bd
       0.05053454 0.04812649 0.07321811 -0.09055953
000310 ec b7 7b bb 27 4b 3f 3d 17 60 b7 3c 00 d4 86 3c
       -0.0038409187 0.04670253 0.022384686 0.016458511
000320 f0 02 2b bd 72 a9 4b 3c e8 08 68 3d bd ba 85 3d
       -0.04175085 0.012430536 0.05664912 0.06529758
000330 86 ad e9 bc 96 38 bf bd 31 bf 9b 3c 05 73 4d bd
       -0.028525125 -0.09336965 0.019012066 -0.05015852
000340 80 87 0e bd 43 c0 d2 bc a4 fe 9b 3d 7d 21 cc 3d
       -0.03479719 -0.025726443 0.07616928 0.09967325
000350 19 ed 46 bd 1b 14 4d 3d 7a 60 81 3d 0f 2a 29 3d
       -0.048565958 0.050068002 0.063172296 0.041299876
000360 0d 46 ca 3d 47 64 a5 3b 08 c6 a2 bd c4 d0 dc bb
       0.098766424 0.0050473544 -0.07947928 -0.006738754
000370 74 05 8e 3d 98 48 1d bd 44 5e 36 3d 69 1c 15 3d
       0.06934634 -0.03839931 0.044523492 0.036404047
000380 55 2e 58 3d d2 69 c0 bc f1 bb 27 bd ed 33 95 bd
       0.05277856 -0.023487959 -0.04095072 -0.07285295
000390 f4 7b 29 bd 20 04 35 bd 72 f4 63 bd cf 68 3f 3d
       -0.041377977 -0.044193387 -0.055653043 0.046730813
0003a0 13 59 0c 3d 3a e9 37 3d 00 8f a0 3d f1 1b 14 3c
       0.034264635 0.044900157 0.07839775 0.009039865
0003b0 ee eb 1e bd fe 6b 34 3d 23 ba 73 3d 89 99 d1 bb
       -0.03879922 0.044048302 0.059503686 -0.0063964766
0003c0 e1 ff 58 bc 68 00 57 bd eb 3f 6c bd d1 58 c7 bc
       -0.0132446 -0.05249062 -0.057678144 -0.024334343
0003d0 f1 04 84 bd 0c ce 2b 3b 10 18 a6 bb c6 a7 41 bd
       -0.06446255 0.0026215343 -0.0050687864 -0.04727914
0003e0 9b bd 2d bd 49 30 9c 3c 1a 2a 0d bd 9f 8a 71 bc
       -0.04241715 0.019065993 -0.03446398 -0.0147425225
0003f0 84 2a bc bc 1d 57 1b bd 84 fd c1 bb b4 f8 ce bd
       -0.022969492 -0.037924875 -0.005920114 -0.1010603

fc.0.bias f4 [128]
000000 b9 9d 92 3e 45 9f 4d bd 63 84 ab bd 2e 3e 91 3e
       0.28635958 -0.05020072 -0.0837486 0.28367752
000010 6f 06 b3 3a 0e c5 ac be a5 17 08 bd d7 a7 82 bd
       0.0013658534 -0.3374409 -0.033225674 -0.06379669
000020 f9 42 e4 3d a9 59 a3 3e 55 f7 e9 bc cf 9b 9b 3e
       0.111455865 0.31904343 -0.02856032 0.3039231
000030 33 3e 87 bd 43 88 90 3e da 68 be 3b 8b 1b 5d 3e
       -0.066036604 0.2822896 0.005810839 0.21592538
000040 53 60 70 bd 94 ec 8b bd 14 5c ff bd 57 ef 43 3d
       -0.058685612 -0.06832233 -0.124687344 0.047835674
000050 5b 16 4f be 9e 20 21 3e 0f 35 a5 bd 05 77 5f 3e
       -0.20223372 0.15735099 -0.08066761 0.21822746
000060 e3 43 97 bd a9 87 a9 bd 08 b5 9c ba f9 7c de bc
       -0.07385995 -0.08277828 -0.0011955807 -0.027159201
000070 5b f7 83 3e 8f a4 86 3e 48 6c 58 3e a7 4d bc 3b
       0.25774655 0.26297423 0.21135056 0.0057465616
000080 3a 75 e7 bc 9a cc c2 bd 6e 0b 50 bd 62 bf 34 3e
       -0.02825414 -0.09511681 -0.05079215 0.17651132
000090 8c e7 2d be 92 a4 3f be 9c db ea bc c3 e8 85 3e
       -0.1698286 -0.18715122 -0.028669171 0.26154146
0000a0 9e 23 60 bd a2 a7 c8 bc 92 db 55 3e a0 bb 84 3e
       -0.054721467 -0.024493996 0.2088454 0.25924397
0000b0 c3 e3 9b bd 83 af 8e 3e 47 eb 92 3e d7 a4 70 3e
       -0.076118015 0.2786828 0.28695127 0.23500381
0000c0 32 dc 39 3e b0 5d af be 37 49 c0 bd 98 55 c2 3d
       0.18150404 -0.34251165 -0.093889646 0.09488982
0000d0 6d a7 2e be af 4a 0b 3d 2a 9c 63 bd ae e7 56 3d
       -0.17056055 0.03400677 -0.05556885 0.05246704
0000e0 e1 8f 8e bd d1 68 80 3e 6d ee 0c bd 25 55 79 bd
       -0.069610365 0.2507997 -0.034407068 -0.060872216
0000f0 d5 b0 c4 bc 5c a5 8d 3e 70 15 71 be 44 74 81 3e
       -0.024010101 0.27665222 -0.23543334 0.25284016
000100 cb f8 9c 3e 24 16 7e 3e 40 8e 54 3e 87 88 5d 3e
       0.30658564 0.24813133 0.20757389 0.21634112
000110 bf ad 41 3d 96 04 e4 bd ec f3 34 bc 56 2f 33 3d
       0.047284838 -0.11133687 -0.011044484 0.043746315
000120 66 c6 4e bd 7e 37 61 3e 57 b5 a5 bd d2 4f 90 3e
       -0.050482176 0.21993825 -0.080912285 0.28185898
000130 10 bd 57 3e 4b 98 8c bd 61 9a 65 3e 2a 1c 6d 3e
       0.21068215 -0.06864985 0.22422172 0.23155275
000140 bb 72 a1 3d df 89 04 bd 0e f7 16 3d 86 4e 47 3e
       0.07883211 -0.032358047 0.036856703 0.19463548
000150 1b 99 ac bd 08 5d b1 bc c7 f6 71 3e 20 35 b9 3c
       -0.0842764 -0.021650806 0.23629294 0.02260834
000160 93 d2 d8 3a dd c8 5c bd f1 af 75 bd 02 2f 20 3e
       0.0016542248 -0.053902496 -0.059982244 0.15642932
000170 a1 57 df bd ed 53 20 bd 5b b0 78 3e 4e 80 ad bc
       -0.10905386 -0.039142538 0.24286024 -0.021179345
000180 b8 b2 f9 ba 99 b6 cd bb 10 a4 83 bd 45 ea 03 be
       -0.0019050455 -0.006277871 -0.06427777 -0.12882335
000190 bf 8d 63 3e c4 a8 91 be ed 9d f5 bd 7b 93 24 bd
       0.2222204 -0.2844907 -0.119930126 -0.04017971
0001a0 91 19 9b 3e be af 58 3e 71 b8 83 3e a5 80 3b 3c
       0.30292943 0.2116079 0.25726655 0.011444245
0001b0 3e 38 b1 3c 8b 47 50 bd cc eb de bc 26 7b 71 3d
       0.021633264 -0.05084948 -0.027212046 0.058955334
0001c0 40 84 6d 3b 45 69 8b 3e 65 7e 8e bd ac 9e a7 bc
       0.0036242157 0.27228752 -0.069577016 -0.020461403
0001d0 e1 ae 9a bd b1 2d a6 bc 0b cd 26 3e dc 23 83 be
       -0.07552887 -0.02028546 0.16289155 -0.25613296
0001e0 bc 50 a5 bd ec 3a 96 bd e1 f5 7b bd 91 15 4a 3e
       -0.080720395 -0.07335457 -0.061513785 0.1973479
0001f0 5c af 0b 3e b5 34 e6 bd 14 85 9f bc 4c 2b 67 3e
       0.13641113 -0.11240522 -0.019472636 0.2257511

fc.2.weight f4 [1, 128]
000000 43 df c8 bd 2f 65 4e 3d ba 5d f6 bc a1 40 0d be
       -0.09808209 0.050389465 -0.03007399 -0.13794185
000010 2e 97 3e 3d f6 ce e0 3f 48 5a f3 bf 5b 50 9a 3d
       0.046530895 1.756316 -1.9011927 0.07534858
000020 af 53 f8 bd 0c 50 23 be e1 ca 4b 3d 5a c2 14 be
       -0.121253364 -0.15948504 0.049754027 -0.14527264
000030 a5 7a 33 3d bc 23 10 be 94 15 31 3d 45 73 72 bd
       0.043818135 -0.14076132 0.04323347 -0.05919196
000040 27 27 1f bf 45 cc a2 bc c7 f1 a0 be b1 87 23 bf
       -0.62169117 -0.019872794 -0.3143446 -0.63878924
000050 1c e5 cd 3e 46 99 a4 bc 75 ea 64 3d 3f bb 72 bd
       0.4021386 -0.020092618 0.05588766 -0.059260603
000060 f9 81 9d bd d5 fe 98 3c f3 f8 53 be d4 ab 5d 3d
       -0.07690806 0.0186762 -0.20700435 0.054118946
000070 4f 29 fe be e5 3d cf bd fd 6c 28 bd de 2a ea ba
       -0.4964089 -0.10119227 -0.041119564 -0.0017865559
000080 98 6b ae bb e0 05 29 bb a0 64 47 3f 55 c5 76 be
       -0.005322885 -0.0025790855 0.77887917 -0.24098714
000090 9c 33 58 ba 9c 7a 0c c0 ad 54 26 3f 7d 3b 0c be
       -0.00082474365 -2.1949835 0.64972955 -0.13694568
0000a0 63 1b 29 bd 31 a9 49 bf f4 e1 38 bd 14 09 e9 bd
       -0.041285884 -0.7877379 -0.04513736 -0.11378685
0000b0 38 11 a3 bd a3 52 b0 bd 96 9b 14 be 37 b0 b5 bd
       -0.079622686 -0.08609512 -0.14512476 -0.08871501
0000c0 71 dd 00 bd 15 81 71 3e 5a 2d 0a bc 07 60 46 bf
       -0.031461183 0.23584397 -0.008433664 -0.77490276
0000d0 b6 0d aa 3e 5a de bd be 0a 1a 72 bc d1 2d c6 3f
       0.33213586 -0.37083703 -0.014776716 1.5482732
0000e0 ab 21 08 bc 95 0e b5 bd b9 b2 65 3d 2c 85 d3 3e
       -0.008308808 -0.08840672 0.056078646 0.4131254
0000f0 85 a7 04 bd 79 92 e1 bd 9e 15 22 bf d5 85 eb bd
       -0.03238632 -0.110142656 -0.63314235 -0.11500136
000100 4c 33 05 be 5f 7e b8 bd 88 8b 1a bd 85 20 44 bd
       -0.1300785 -0.090084784 -0.037730724 -0.047882576
000110 eb d0 4a 3e 92 09 82 bd d0 1e be bb 97 e6 1e 3f
       0.19806258 -0.06349482 -0.005802013 0.620706
000120 eb 7f 5d 3b 0b c8 aa bd ec 29 99 bc 98 97 aa bd
       0.003379817 -0.083389364 -0.018696748 -0.083296955
000130 80 8c 6d bf 10 98 19 3d 53 38 91 bd f2 a3 d0 be
       -0.9279251 0.037498534 -0.07090821 -0.4075008
000140 5b 1d 9f 3c 63 2e eb 3f 81 00 dd 3e ce 4a ad be
       0.019423177 1.8373531 0.43164447 -0.33846134
000150 9a f5 88 3c 11 1c e3 3b f4 f8 b0 bd e7 d6 39 bf
       0.016718674 0.006930836 -0.08641234 -0.7259354
000160 ef 95 9a 3e a6 be 84 bf 63 97 2a 3f 78 89 06 bf
       0.30192515 -1.0370681 0.6663725 -0.5255351
000170 20 c6 03 40 00 7d 09 3d 18 ba 9a bd e3 60 c0 bb
       2.0589676 0.033566475 -0.07555026 -0.005870925
000180 ee e0 0e bb ad 27 b4 bb d1 87 ab bd 80 9d 10 bb
       -0.002180155 -0.005497894 -0.08375514 -0.0022066534
000190 24 48 54 bd 6c 42 07 bf 4f c8 21 3f b4 de eb bc
       -0.05182661 -0.52835727 0.6319627 -0.028792717
0001a0 33 21 e4 bd 6b f7 83 be 53 10 a8 bd af ee 47 3f
       -0.11139145 -0.25774702 -0.082062386 0.7809858
0001b0 69 77 47 3f f9 c2 2c bd 76 74 d4 bb 94 41 15 bf
       0.7791658 -0.042178128 -0.00648361 -0.5830319
0001c0 96 2e c6 3c f2 c8 98 bd 97 80 2d bd b4 b5 00 3d
       0.024192136 -0.07460202 -0.04235896 0.031423286
0001d0 a3 04 d3 bc a8 31 58 bf eb 18 99 bc 77 20 7e 3e
       -0.025759047 -0.8445077 -0.01868864 0.24817072
0001e0 27 b9 fd bc 3a cb 30 bf 20 2c 05 bd 7a 90 ac bc
       -0.030972077 -0.690601 -0.032512784 -0.021064986
0001f0 68 a3 e0 be 6f 2c 0f bc 48 0c 84 bb 13 98 b4 bd
       -0.4387467 -0.008738621 -0.0040297844 -0.08818068
