actor_model.pth (torch, 345480 bytes, 7 tensors)

lstm.weight_ih_l0 f4 [512, 5]
0	0x3d4a0be9	0.049327765
1	0x3e0cfc0d	0.13768025
2	0x3e1c04c2	0.1523619
3	0x3e5a90de	0.21344325
4	0x3f165884	0.58728814
5	0xbecbc60e	-0.3979954
6	0xbd7da189	-0.06192163
7	0xbf1fa157	-0.6235556
8	0x3d1bda70	0.038050115
9	0xbc8d55f5	-0.017252902
10	0xbc44251a	-0.011971736
11	0xbe8e0bb1	-0.27743295
12	0xbebac696	-0.36479634
13	0xbd0106df	-0.031500693
14	0xbe3a3038	-0.18182456
15	0xc0207073	-2.5068634
16	0xbfdda7d2	-1.731684
17	0xbf57d096	-0.8430265
18	0xbfdadebd	-1.7099224
19	0xbf90775b	-1.1286424
20	0xbf5372c9	-0.82597023
21	0xbf6c5830	-0.92322063
22	0xbf8cfa83	-1.101395
23	0xbecf8de9	-0.40537956
24	0xbf4870bd	-0.78297025
25	0xbf5faeed	-0.8737629
26	0xbf022e5e	-0.50852
27	0xbecbbfd4	-0.3979479
28	0xbe889542	-0.26676375
29	0xbed208a5	-0.4102222
30	0xbf3232d7	-0.69608825
31	0xbf3d739d	-0.74004537
32	0xbf725dd4	-0.9467442
33	0xbe9492ad	-0.29018155
34	0xbf855d19	-1.0419036
35	0x3deeda61	0.11662746
36	0x3d9e27ba	0.07722421
37	0xbc16a378	-0.009194247
38	0x3d28ed49	0.041241918
39	0x3f11e788	0.56993914
40	0xbf1c1191	-0.60964304
41	0xbf1ef4ce	-0.6209229
42	0xbf1d60e8	-0.6147599
43	0xbf115387	-0.5676808
44	0xbf1f0879	-0.62122303
45	0xbfbb74a9	-1.4644977
46	0xbfd77ef2	-1.6835616
47	0xbfcd4a42	-1.6038287
48	0xbf715edf	-0.94285387
49	0xbf82671e	-1.0187719
50	0xbf15269f	-0.58262056
51	0xbf207a0a	-0.62686217
52	0xbf2c2932	-0.6725036
53	0xbe9a725e	-0.3016538
54	0xbe8e47f9	-0.27789286
55	0xbf276210	-0.65384007
56	0xbf835cd7	-1.0262707
57	0xbf8ea12b	-1.1142935
58	0xbf2b5ae6	-0.66935575
59	0xbfb6a528	-1.4269152
60	0xbf12f0cf	-0.57398695
61	0xbf5b73af	-0.85723394
62	0xbf8f8c2b	-1.1214651
63	0xbf4c1cd1	-0.7973147
64	0xc046fb50	-3.109089
65	0xbf825187	-1.018113
66	0xbf50d323	-0.8157217
67	0xbe748653	-0.23879366
68	0xbe9d3ad6	-0.3070895
69	0xbe860b36	-0.26180428
70	0x3cb3de16	0.021956485
71	0xbd0559c4	-0.03255631
72	0x3dbfe8dd	0.09370587
73	0x3ebe5fa8	0.37182355
74	0x3e91d6e6	0.28484267
75	0xbf60a40f	-0.87750334
76	0xbf88d6d1	-1.0690557
77	0xbf88e87a	-1.0695946
78	0xbedd1b7e	-0.43185037
79	0xbf95f8ab	-1.1716512
80	0xbe824bb4	-0.25448382
81	0xbcb88820	-0.022525847
82	0x3d69d237	0.057085242
83	0xbd1b76ad	-0.037954975
84	0x3f188de5	0.59591514
85	0xc0079f24	-2.1190882
86	0xbf5af33f	-0.85527414
87	0xbdbad543	-0.09122708
88	0xbe5a1e0f	-0.21300529
89	0xbf1f2c39	-0.62176853
90	0xbe57653a	-0.21034709
91	0xbe00abf2	-0.12565592
92	0xbdfbde51	-0.12298263
93	0xbc311605	-0.0108084725
94	0x3ee0c01a	0.43896562
95	0xbfce6920	-1.6125832
96	0xbfca9715	-1.5827357
97	0xbfc9369a	-1.5719788
98	0xbf862ffe	-1.0483396
99	0xbf8d78f0	-1.1052532
100	0xbfa15107	-1.2602853
101	0xbf20e62f	-0.6285123
102	0xbe62eeb5	-0.22161372
103	0x3c89f443	0.016840106
104	0x3d47ce8c	0.048780963
105	0xc00a13b7	-2.1574533
106	0xbff24904	-1.8928533
107	0xbfc592b9	-1.5435401
108	0xbf935cc5	-1.1512686
109	0xbf52e565	-0.8238128
110	0xbe45b38e	-0.19306776
111	0xbeaead3a	-0.34116536
112	0xbe8e4ca6	-0.27792853
113	0xbe679517	-0.22615467
114	0x3cd27b14	0.025693454
115	0xbf77c09e	-0.96778286
116	0xbf5ee3ea	-0.8706652
117	0xbf7e6b1d	-0.9938219
118	0xbee82b3d	-0.45345488
119	0xbf48054b	-0.78133076
120	0x3db7d99e	0.08977054
121	0x3df8ed72	0.12154664
122	0x3d3c76d0	0.046011746
123	0x3e49b721	0.19698764
124	0x3f55f448	0.8357587
125	0xbfe12e73	-1.75923
126	0xbfc6d537	-1.5533818
127	0xbfcb4628	-1.5880785
128	0xbf7480e0	-0.9550915
129	0xbfa1c9ab	-1.2639669
130	0x3dbf1c96	0.09331624
131	0x3e50a2f3	0.2037466
132	0x3e5220c4	0.20520312
133	0x3e156348	0.14588654
134	0x3eecdf9d	0.46264353
135	0x3ea2d7eb	0.31805357
136	0x3e718818	0.23587072
137	0x3dd22fb8	0.10263008
138	0x3e2d76cb	0.16939847
139	0xbea04721	-0.31304267
140	0xbf946bde	-1.1595418
141	0xbe4c710e	-0.19965002
142	0xbefe2277	-0.4963567
143	0xbf25d4da	-0.6477791
144	0xbe913279	-0.2835882
145	0xc006f222	-2.1085286
146	0xbfb7c7e1	-1.4357873
147	0xbfda2588	-1.7042704
148	0xbf78f6d1	-0.9725161
149	0xbf46a951	-0.77602106
150	0xbf992f0f	-1.1967486
151	0xbf37985d	-0.7171686
152	0xbf0d309c	-0.551523
153	0xbd5f8835	-0.054573257
154	0xbefcff68	-0.4941361
155	0xc00d983a	-2.2124162
156	0xbf5a645f	-0.85309404
157	0xbe300043	-0.171876
158	0xbe576a6f	-0.21036695
159	0xbe2a39c3	-0.16623597
160	0x3e2a6112	0.16638592
161	0x3e424b82	0.18974116
162	0x3de1b505	0.11020855
163	0x3db5f705	0.08885006
164	0x3f26348f	0.6492395
165	0xbed9c9e5	-0.42536846
166	0xbf260956	-0.64857996
167	0xbf5d1f9b	-0.8637635
168	0xbe8cedc7	-0.2752516
169	0xbedc3ae7	-0.4301369
170	0xc01ccf97	-2.4501703
171	0xbfc584dc	-1.543117
172	0xbfc431b1	-1.5327665
173	0xbf7ae176	-0.98000276
174	0xbf295417	-0.66143936
175	0xbf0f557a	-0.559898
176	0xbf46007d	-0.77344495
177	0xbeff2bda	-0.49838144
178	0xbf1c9a11	-0.61172587
179	0xbf4ab22c	-0.7917812
180	0xbf868a04	-1.0510869
181	0xbfb45b35	-1.4090334
182	0xbfb6ef88	-1.4291849
183	0xbf9a688b	-1.2063154
184	0xbf9eedd9	-1.2416335
185	0xbfa6d854	-1.3034768
186	0xbf9f87a3	-1.2463268
187	0xbfdaca40	-1.7092972
188	0xbed35304	-0.41274273
189	0xbed1b3aa	-0.40957385
190	0xbf87605a	-1.0576279
191	0xbfb777ff	-1.4333495
192	0xbfc5b988	-1.5447245
193	0xbf07fc0c	-0.5311897
194	0xbf1c35fd	-0.6101988
195	0xbeefd2eb	-0.46840605
196	0xbed04dc3	-0.40684327
197	0xbefea54c	-0.49735487
198	0xbe953053	-0.2913843
199	0xbdb89f96	-0.090148136
200	0xbfe950c6	-1.8227775
201	0xbf54b101	-0.83082587
202	0xbf5fe9dd	-0.8746622
203	0xbf1bb13f	-0.6081733
204	0xbf37ea07	-0.7184147
205	0xbf15e9f9	-0.5856014
206	0xbed2037f	-0.41018292
207	0xbc2ad731	-0.010427282
208	0xbe2f0073	-0.17090015
209	0x3f305a8d	0.6888817
210	0xbfd347c8	-1.6506281
211	0xc00c09e3	-2.1881034
212	0xbfabb79b	-1.3415407
213	0xbf2632f6	-0.6492151
214	0xbf3a16db	-0.72691125
215	0x3dabb6c1	0.08384467
216	0x3d56d8cb	0.052452844
217	0xbcdd40e8	-0.027008489
218	0x3d9bbae3	0.07604005
219	0x3f78a9c4	0.9713404
220	0xbf7216c3	-0.9456598
221	0xbf484867	-0.7823548
222	0xbea5b54f	-0.3236489
223	0xbf237dc7	-0.63863796
224	0xbf0c753f	-0.54866403
225	0xbf0302f9	-0.5117641
226	0xbf18af3f	-0.59642404
227	0xbebcbf9e	-0.36864942
228	0xbebee651	-0.37285092
229	0xbf04b3d8	-0.5183692
230	0xbefd3bca	-0.49459678
231	0xbf3f968e	-0.74839103
232	0xbf54b748	-0.83092165
233	0xbf2e77c9	-0.6815153
234	0xbee0ca67	-0.4390442
235	0xbd2c16c7	-0.04201391
236	0xbd9ac3f3	-0.075569056
237	0x3d59405c	0.053039894
238	0x3d60d9b4	0.054895118
239	0x3ec5e3d8	0.38650393
240	0xc03c3885	-2.9409497
241	0xbf8a2833	-1.0793518
242	0xbdea0096	-0.11425893
243	0xbdc8420c	-0.097782224
244	0xbe276c48	-0.163499
245	0xbf55d71b	-0.8353135
246	0xbf3d6146	-0.7397655
247	0xbe2f1c72	-0.17100695
248	0xbdc012f5	-0.09378616
249	0xbeaebea4	-0.34129822
250	0xbfc027e9	-1.501218
251	0xbfcfb14b	-1.622598
252	0xbfcbd74f	-1.5925082
253	0xbf62f0ae	-0.886485
254	0xbf78f989	-0.9725576
255	0xbe93dbca	-0.28878623

lstm.weight_hh_l0 f4 [512, 128]
0	0x3d8bec3f	0.0683217
1	0xbd6047b3	-0.054755878
2	0xbcb7ad02	-0.022421364
3	0x3ceb2a3b	0.02870666
4	0x3cd7a2b3	0.026322698
5	0xbc7b209a	-0.015327597
6	0x3b99922a	0.0046866136
7	0x3cbc9af9	0.023023115
8	0x3d981166	0.074251935
9	0x3d1054a6	0.035236977
10	0x3d44ff46	0.04809501
11	0x3d548d48	0.05189255
12	0xbd7da647	-0.061926153
13	0x3d71967f	0.058981415
14	0xbb646840	-0.0034852177
15	0x3d9908cf	0.07472383
16	0x3d767293	0.06016786
17	0x3d53cced	0.051709104
18	0x3bda0b02	0.0066541443
19	0xbd7772ca	-0.060412206
20	0xbd2d890e	-0.042367034
21	0x3da953d9	0.08267946
22	0x3bebf7f4	0.007201189
23	0x3d72c940	0.05927396
24	0x3da47ac0	0.08031225
25	0x3d455525	0.048176903
26	0x3d3e3899	0.046440694
27	0xbd6305c5	-0.055425424
28	0xbd483e94	-0.048887804
29	0x3d45a98e	0.048257403
30	0x3c550f2b	0.013004105
31	0x3d4a49b4	0.049386695
32	0x3d82029c	0.06348154
33	0xbd964481	-0.07337285
34	0x3dafb3ad	0.08579192
35	0x3d71c0f8	0.05902192
36	0x3d8a6eb6	0.06759398
37	0x3d8a9062	0.0676582
38	0xbd689c7a	-0.056789853
39	0x3b8adc61	0.004237697
40	0x3cdf37af	0.027248232
41	0x3d8c45a1	0.06849218
42	0xbb1f099e	-0.0024267207
43	0x3d3784c5	0.044804353
44	0xbd027373	-0.031848382
45	0xbdad1176	-0.08450596
46	0x3d8d4f80	0.06899929
47	0xbd9b960e	-0.0759698
48	0x3d7ac3ba	0.061221816
49	0xbd89b0c8	-0.067231715
50	0xbd6c9abc	-0.057764754
51	0xbc29fa34	-0.0103745945
52	0xbd1e4181	-0.03863669
53	0x3d9a03bb	0.07520243
54	0xbab6bff4	-0.0013942705
55	0xbd44a896	-0.04801234
56	0x3d78c3cb	0.060733598
57	0xbd65a00d	-0.05606084
58	0x3ce12046	0.02748121
59	0x3cd3da78	0.02586101
60	0xbd884deb	-0.06655487
61	0x3d6469fc	0.055765137
62	0xbd98a611	-0.0745355
63	0x3d2eb032	0.0426485
64	0x3d15a8e1	0.03653801
65	0xbccbda50	-0.024884373
66	0x3d6fc5c3	0.05853821
67	0xbd4c71d5	-0.049913246
68	0x3d2776d0	0.040884793
69	0x3dabc93f	0.08387994
70	0x3daddeec	0.084897846
71	0x3c2a8219	0.010406994
72	0x3d84b731	0.064802535
73	0x3cca8408	0.02472116
74	0x3c3cb633	0.011518049
75	0xbd371156	-0.044694267
76	0xbd410f05	-0.047133464
77	0x3cf1e2ee	0.029527154
78	0x3d99bc8f	0.07506668
79	0x3d09f8de	0.033684604
80	0x3d8e426c	0.06946263
81	0xbcdfde95	-0.027327815
82	0x3d8a70a6	0.06759767
83	0x3bd328a2	0.006444053
84	0x3da1d86a	0.07902606
85	0xbd931b9e	-0.07183002
86	0x3d8f867e	0.07008074
87	0xbd832f4c	-0.064055055
88	0xbc908ea2	-0.017646138
89	0x3d6954e1	0.056965712
90	0xbd909d85	-0.070612945
91	0xbda2e44f	-0.07953703
92	0xbd9e98e1	-0.07744003
93	0x3c4891fc	0.012241837
94	0xbd95cb32	-0.07314147
95	0xbda836d0	-0.0821358
96	0x3d6e5b42	0.0581925
97	0x3cc07848	0.023494855
98	0x3dab1972	0.08354463
99	0xbda569a8	-0.08076793
100	0xbd947ccd	-0.07250366
101	0x3d1541c3	0.03643967
102	0xbd958907	-0.073015265
103	0x3dab7440	0.08371782
104	0x3d30c6b9	0.043158267
105	0x3d98db30	0.07463682
106	0xbcda20f9	-0.02662705
107	0xbd2cb095	-0.04216059
108	0x3db2789b	0.0871441
109	0xbd57d22f	-0.05269068
110	0xba26d5f5	-0.00063642795
111	0xb933515f	-0.00017101083
112	0xbd89f286	-0.06735711
113	0x3ca13096	0.019676488
114	0x3d3cbce7	0.04607859
115	0x3ce55111	0.027992757
116	0xbd0d651b	-0.03452025
117	0x3cf1b8b4	0.029507019
118	0xbcfe97ff	-0.031078337
119	0xbd0d77f4	-0.034538224
120	0x3da20f16	0.07913034
121	0xbc2f84ec	-0.010712843
122	0x3d0f96ef	0.03505605
123	0xbd6dadf7	-0.058027234
124	0x3d89a539	0.06720967
125	0x3d80a597	0.06281584
126	0x3d34c22f	0.0441305
127	0xbcf9aa69	-0.030476766
128	0xbda6d1c5	-0.08145479
129	0x3da45a4a	0.08025034
130	0xbc4a8665	-0.012361144
131	0x3be3ebcd	0.0069556
132	0xbba5f25b	-0.0050642914
133	0x3c7e1529	0.015507975
134	0xbd3ae7b7	-0.045631137
135	0x3beae12d	0.0071679563
136	0xbcbff463	-0.023431962
137	0x3d77ac38	0.060466975
138	0x3d8f56f1	0.06999005
139	0xbd7b1df9	-0.06130788
140	0x3d7dfd65	0.062009234
141	0xbd9a211e	-0.07525848
142	0x39b0d664	0.0003372907
143	0x3d7796c1	0.060446505
144	0xbda58bee	-0.0808333
145	0xbca9d86a	-0.020733077
146	0x3d108817	0.035286035
147	0x3c3f49e2	0.01167533
148	0xbd517062	-0.051132567
149	0xbc99d250	-0.018777043
150	0xbbd1215a	-0.0063821496
151	0xbdb30df7	-0.08742898
152	0x3d7a0a30	0.06104487
153	0xbd5414ff	-0.051777836
154	0x3db4f4de	0.08835767
155	0x3d6aaeb0	0.0572955
156	0x3cb0899a	0.021549989
157	0x3c217242	0.009853901
158	0x3d3a3f3a	0.045470454
159	0x3d6c0fb5	0.057632167
160	0x3d9d8f6b	0.076933704
161	0x3c9b8ebb	0.018988958
162	0xbcd04ccd	-0.025427246
163	0xbcbbbd3b	-0.02291738
164	0x3ba12a5b	0.0049183792
165	0xbda36032	-0.07977332
166	0x3d095606	0.033529304
167	0x3cdc4fd5	0.026893536
168	0x3d503d0b	0.050839465
169	0xbd15dfae	-0.03659027
170	0x3d7b681b	0.06137858
171	0x3d22ac42	0.03971506
172	0x3db24c22	0.087059274
173	0xbdb25793	-0.0870811
174	0xbd4b7502	-0.049672134
175	0xbd52c49f	-0.051457044
176	0x3d9a6a86	0.07539849
177	0xbbd19a17	-0.006396543
178	0xbd0644a9	-0.032780323
179	0xbd6eeb00	-0.058329582
180	0xbd4bda0a	-0.049768485
181	0xbcee5959	-0.029095339
182	0xbbc98398	-0.0061497204
183	0xbd178b59	-0.036998127
184	0x3d980caa	0.074242905
185	0x3c994a0a	0.018712062
186	0x3da4d1da	0.080478385
187	0xbdb33f73	-0.08752336
188	0xbd6b81d3	-0.057496857
189	0x3d0e05d7	0.034673538
190	0x3cf3fd6a	0.029783923
191	0xbb79b959	-0.003810486
192	0x3c075a93	0.008261341
193	0xbda5169d	-0.08060954
194	0x3ce8d6fb	0.028422823
195	0x3ccb0b55	0.024785677
196	0x3db3ce53	0.087795876
197	0x3bd4ad03	0.006490351
198	0x3c4f3343	0.012646499
199	0xbb11ac1b	-0.0022227827
200	0xbda14dba	-0.07876153
201	0xbd0c8584	-0.034307018
202	0x3d4030ff	0.046921726
203	0x3d33016f	0.04370254
204	0x3d366a83	0.04453517
205	0x3d886c0f	0.066612355
206	0x3c96e88f	0.01842144
207	0xbd89e417	-0.06732958
208	0xbb8dce3e	-0.0043275645
209	0xbc2f20e9	-0.010688999
210	0x3ccc4ebe	0.024939891
211	0xbd8f2e7a	-0.069912866
212	0xbdae6c2b	-0.08516725
213	0xbd670ecf	-0.056410607
214	0xbcf0bb84	-0.02938629
215	0xbd97b27e	-0.074070916
216	0x3ce8388b	0.028347274
217	0xbd1b3783	-0.037894737
218	0x3daaeedc	0.0834634
219	0xbd8440ae	-0.06457649
220	0x3da73cd4	0.08165899
221	0xbd685356	-0.0567201
222	0x3b20b6a7	0.0024522932
223	0xba82b55a	-0.000997226
224	0xbd0f9771	-0.035056535
225	0x3d91eeb7	0.07125609
226	0xbd8c865e	-0.06861566
227	0xbdb2ac25	-0.0872424
228	0xbd0536e9	-0.03252307
229	0x3c74c138	0.014938645
230	0xbdb17c2f	-0.08666264
231	0xbda2e2cb	-0.079534136
232	0xbca5d2e4	-0.020242162
233	0x3b7bf483	0.00384453
234	0x3d2f65cf	0.0428217
235	0xbd906c5f	-0.0705192
236	0xbd9a7dec	-0.07543549
237	0xbc9f6abc	-0.019460075
238	0xbd8bf58b	-0.06833943
239	0xbd56ac68	-0.052410513
240	0xbd6c15a7	-0.057637837
241	0xbda00e6f	-0.07815253
242	0x3ce3f5c4	0.027827151
243	0xbd513305	-0.051074047
244	0x3d8da7d8	0.06916779
245	0xbdb181d7	-0.08667343
246	0xbd5f0994	-0.054452494
247	0xbd06dbdf	-0.03292453
248	0x3d82952f	0.06376111
249	0x3cd7deea	0.02635141
250	0xbcb0bf85	-0.021575699
251	0x3ca7cafe	0.020482536
252	0x3da7b531	0.081888564
253	0x3ccd8973	0.025089955
254	0x3d4e6b32	0.0503952
255	0x3db0c716	0.08631723

lstm.bias_ih_l0 f4 [512]
0	0xbd8b912a	-0.06814797
1	0x3eae1e67	0.3400757
2	0x3dfe308e	0.12411605
3	0xbe691ace	-0.22764131
4	0xbec54e5c	-0.38536346
5	0x3d835009	0.0641175
6	0xbe9582a6	-0.2920124
7	0xbdba003b	-0.09082075
8	0xbefbcd0f	-0.49179885
9	0xbe82fc32	-0.25583035
10	0xbf6dbf6c	-0.9287021
11	0xbe9f543e	-0.3111896
12	0xbe2cb395	-0.1686538
13	0xbd81c85d	-0.063370444
14	0xbe3735d7	-0.17891632
15	0xbed7d9c3	-0.42158327
16	0x3e95df43	0.29271898
17	0xbe3d6249	-0.18494524
18	0xbea20395	-0.31643358
19	0x3d506b38	0.0508835
20	0xbe83ae8e	-0.25719112
21	0xbeae5f4e	-0.34057087
22	0xbe4c05a9	-0.19924034
23	0xbe81bdf6	-0.2534024
24	0x3e45007e	0.19238469
25	0x3ed860ec	0.42261446
26	0xbd689cdc	-0.056790218
27	0x3d1c001b	0.038086038
28	0x3f12dc57	0.5736746
29	0xbe5e0e02	-0.21685031
30	0xbe8b0e7e	-0.27159494
31	0x3d51634d	0.05112009
32	0x3db8548b	0.090005
33	0xbe4836ce	-0.19552156
34	0xbe619232	-0.22028425
35	0x3ede894a	0.43464118
36	0xbe2880b0	-0.1645534
37	0x3dda4618	0.106579006
38	0xbead9653	-0.3390375
39	0xbea8e478	-0.32986808
40	0x3ede2662	0.4338866
41	0x3ec728eb	0.38898405
42	0xbe056bf5	-0.13029464
43	0x3ebc7f0f	0.36815688
44	0x3e7cf8ff	0.2470436
45	0xbd425dc9	-0.04745272
46	0xbe8fab4a	-0.2806037
47	0xbe36aa61	-0.17838432
48	0xbd102ed4	-0.03520091
49	0xbe928075	-0.2861363
50	0xbe0ffb81	-0.14060785
51	0xbe3a5ed5	-0.18200238
52	0xbc66162a	-0.01404337
53	0xbdb538ad	-0.08848701
54	0xbf1b9284	-0.6077044
55	0xbd82d7ba	-0.06388803
56	0xbddaa405	-0.106758155
57	0x3d24e98a	0.040261783
58	0xbdc43ff0	-0.095825076
59	0xbea7ed0e	-0.32798046
60	0xbda1aad5	-0.07893912
61	0xbeb07fe7	-0.34472582
62	0xbe3f6e57	-0.18694435
63	0xbe7badfa	-0.24578086
64	0x3e4b011f	0.19824646
65	0xbf38e3fc	-0.72222877
66	0xbe93ab0b	-0.28841433
67	0xbc91a0e8	-0.017776921
68	0xbefdaf3d	-0.4954776
69	0x3f6d0cbb	0.9259755
70	0xbebcdb1a	-0.3688591
71	0xbea55d1e	-0.32297605
72	0xbd746335	-0.059664924
73	0xbec17ad3	-0.3778902
74	0xbeae9638	-0.34098983
75	0xbe490687	-0.19631396
76	0xbe9438b5	-0.28949514
77	0xbde6b3ed	-0.11264787
78	0x3df86924	0.12129429
79	0xbe0bb8c0	-0.13644695
80	0xbe2e761d	-0.17037244
81	0xbe9b474c	-0.30327833
82	0xbe10f528	-0.1415602
83	0xbd3926d4	-0.045203045
84	0xbe1018a8	-0.14071906
85	0x3e905d6d	0.28196278
86	0x3f37eb2b	0.7184321
87	0x3df9c0f9	0.1219501
88	0x3ece9dc2	0.40354735
89	0x3e22c57d	0.15895648
90	0xbe7c805b	-0.24658339
91	0x3dda98f1	0.106737025
92	0xbd65fa90	-0.05614716
93	0x3dc853c3	0.09781601
94	0x3e3e9c15	0.18614228
95	0x3d62fecc	0.055418774
96	0x3cea3fa7	0.028594805
97	0xbe973d46	-0.29538935
98	0xbebf2ba1	-0.37337974
99	0xbe8ef6ed	-0.27922764
100	0xbebe9741	-0.37224773
101	0x3db60db7	0.08889335
102	0xbf2806e4	-0.65635514
103	0xbe79399b	-0.24338381
104	0xbe06a001	-0.13146974
105	0xbe5f8c72	-0.2183092
106	0xbdd44705	-0.103651084
107	0x3da4e63c	0.08051726
108	0xbe45d29a	-0.1931862
109	0xbf1c1fcb	-0.6098601
110	0xbed4d135	-0.41565862
111	0xbe96e90a	-0.2947467
112	0xbea96084	-0.33081448
113	0xbc7b0c7a	-0.015322799
114	0x3ed4f64f	0.4159417
115	0xbe71bc36	-0.23606953
116	0xbee77619	-0.4520729
117	0xbef27def	-0.47361705
118	0xbc9489f0	-0.01813218
119	0x3c5ae70d	0.013360751
120	0xbebd2847	-0.36944792
121	0xbe970ddf	-0.2950277
122	0x3d031346	0.032000802
123	0x3d737b02	0.05944348
124	0x3e90bcda	0.28269082
125	0xbf5ab5b9	-0.85433537
126	0x3e84fcd1	0.25974134
127	0xbebb3956	-0.3656718
128	0xbc23e916	-0.0100043025
129	0x3da41939	0.08012623
130	0xbda97385	-0.08273987
131	0xbce1e4e5	-0.027574966
132	0xbbb5a8d2	-0.0055438066
133	0x3d823ed2	0.06359638
134	0xbd9a37a9	-0.075301476
135	0x3d08e34b	0.03341989
136	0xbd86df69	-0.06585581
137	0xbd9544c3	-0.07288506
138	0xbd8aa9b7	-0.06770652
139	0xbd955c46	-0.072929904
140	0x3d027162	0.03184641
141	0x3da05d30	0.07830274
142	0xbca5f266	-0.020257186
143	0xbd4af4de	-0.04954993
144	0xbd30ab03	-0.04313184
145	0x3c8deac5	0.01732386
146	0xbca77a3a	-0.020444024
147	0x3d1448e2	0.03620232
148	0xbd00e6c0	-0.03147006
149	0xbd30844d	-0.04309492
150	0xbb35a5a4	-0.0027717138
151	0xbd82974c	-0.06376514
152	0xbd9295a7	-0.0715745
153	0x3cf7a7ae	0.030231323
154	0xbda54f2a	-0.0807174
155	0x3d7118a5	0.058861393
156	0xbd048723	-0.03235544
157	0xbd8d1942	-0.06889583
158	0x3d9ae9a6	0.07564096
159	0xbd8b1fde	-0.067931876
160	0x3c076a5a	0.008265102
161	0xbd6457d8	-0.055747837
162	0xbd9a4f09	-0.07534606
163	0xbd4a5762	-0.04939974
164	0xbd2c7c03	-0.042110454
165	0x3c8b8c9a	0.017034817
166	0x3cb19ce9	0.021681266
167	0xbbe8045a	-0.007080597
168	0xbc044c56	-0.0080748405
169	0xbbaeace7	-0.00533067
170	0x3d6439a6	0.05571904
171	0xbb3d19c4	-0.002885447
172	0x3d89a497	0.06720846
173	0xbd79e100	-0.061005592
174	0xbc64b504	-0.013959173
175	0xbdb0cb9e	-0.08632587
176	0x3d6f2570	0.058385313
177	0x3d9fe8e8	0.07808095
178	0x3d9f9c0f	0.07793438
179	0xbd9bb54b	-0.07602938
180	0xbcb0afcf	-0.021568207
181	0x3d0d49c0	0.03449416
182	0x3d6b04c1	0.05737758
183	0x3d4da9e1	0.050210837
184	0xbd9d02d7	-0.07666557
185	0xbc50277a	-0.012704724
186	0xbd96f3bc	-0.073707074
187	0x3d43d72c	0.047812626
188	0x3cd9a0e0	0.026565969
189	0xbc8ecaf2	-0.017430756
190	0xbcd72c31	-0.02626619
191	0x3c3b2c4b	0.0114241345
192	0xbcd76db6	-0.026297431
193	0xbd9fb99d	-0.07799075
194	0x3cdfccf3	0.027319407
195	0xbbb411e2	-0.005495296
196	0xbd8bd500	-0.06827736
197	0xbd9a520a	-0.07535179
198	0xbd845af6	-0.06462662
199	0xbd73f439	-0.05955908
200	0xbbf76777	-0.007550176
201	0x3da09f5e	0.07842897
202	0xbda85c8d	-0.08220778
203	0x3d8f9547	0.07010894
204	0x3d44d46b	0.04805414
205	0x3d9ed69a	0.07755776
206	0x3ce073df	0.027399002
207	0x3aa63c29	0.0012682724
208	0xbdb0f93d	-0.086412884
209	0xbd379a2c	-0.044824764
210	0x3daf7965	0.08568076
211	0x3b6a6405	0.0035765183
212	0xbd53b0ee	-0.051682405
213	0xbca5c810	-0.020236999
214	0x3d1445a5	0.03619923
215	0x3ae780bd	0.0017662268
216	0x3d98c31d	0.0745909
217	0x3d629dab	0.055326145
218	0x3daba658	0.08381337
219	0x3c1b71c2	0.009487571
220	0xbd98f6ea	-0.0746897
221	0x3d785573	0.060628366
222	0x3ce6ccea	0.028173883
223	0x3da0c47e	0.07849978
224	0x3ccbac43	0.024862414
225	0xbd4d5284	-0.05012752
226	0xbda94345	-0.08264784
227	0x3cc81c5c	0.024427585
228	0xbd622e93	-0.055220198
229	0xbd279a1a	-0.040918447
230	0x3c8d7e7f	0.017272232
231	0x3cf2c118	0.02963309
232	0x3d20df37	0.039275374
233	0x3d0ab240	0.0338614
234	0x3d4c5570	0.049886167
235	0x3cbd6b21	0.023122372
236	0x3cbe6fb8	0.023246631
237	0x3c4765e8	0.012170292
238	0xbd8d8f02	-0.06912042
239	0x3cfe18d4	0.031017698
240	0xbd2b2ed2	-0.0417927
241	0x3d0ebcc5	0.034847993
242	0xbd617d2b	-0.05505101
243	0x3d336241	0.043794874
244	0x3ceb7480	0.028742075
245	0x3d09921b	0.033586603
246	0xbcf60db1	-0.030035825
247	0xbdae80b2	-0.085206404
248	0xbcd512e1	-0.026009979
249	0x3daa0efc	0.08303639
250	0x3dac3099	0.08407707
251	0x3d208f82	0.03919936
252	0x3c678d6c	0.014132839
253	0x3d1fb5e0	0.03899181
254	0x3d6ad5ad	0.057332683
255	0x3b33eb58	0.0027453508

lstm.bias_hh_l0 f4 [512]
0	0x3d6d1e25	0.057890076
1	0x3ee75199	0.45179442
2	0x3e273054	0.1632703
3	0xbeb7ceaf	-0.35899875
4	0xbea7e8a1	-0.3279467
5	0x3ba6e9b9	0.00509378
6	0xbe76ea7e	-0.24112889
7	0xbdc75e8b	-0.097348295
8	0xbee9abf6	-0.45639008
9	0xbe74d42b	-0.2390906
10	0xbf614bfa	-0.88006556
11	0xbe99585f	-0.29950234
12	0xbe4ccd00	-0.20000076
13	0xbe02a428	-0.12757933
14	0xbe1e7869	-0.1547562
15	0xbeb782b2	-0.358419
16	0x3e9d54e7	0.30728838
17	0xbd8e8ddd	-0.06960652
18	0xbe63789c	-0.22213978
19	0xbd06c5f8	-0.03290364
20	0xbe3880fa	-0.1801795
21	0xbe9f2fa1	-0.31091025
22	0xbe117cd6	-0.14207777
23	0xbeaa85a9	-0.333051
24	0x3db5f4bc	0.0888457
25	0x3ea9c25e	0.33156103
26	0x3c9267bd	0.017871732
27	0xbd1a7e27	-0.037717965
28	0x3f1ae0a3	0.6049902
29	0xbe39a8f2	-0.18130854
30	0xbe651270	-0.22370315
31	0x3e275184	0.1633969
32	0xbd2cc536	-0.042180263
33	0xbe487e49	-0.19579424
34	0xbe829d81	-0.2551079
35	0x3f171cbf	0.5902824
36	0xbd526c9b	-0.051373105
37	0x3def45cc	0.116832346
38	0xbe3c85d8	-0.18410432
39	0xbe8afc59	-0.2714565
40	0x3f0dd09a	0.55396426
41	0x3ea5362c	0.32267892
42	0xbe1551e3	-0.14582019
43	0x3e8be12d	0.27320233
44	0x3e75e3c7	0.24012671
45	0xbe0c2832	-0.13687208
46	0xbec4f4ee	-0.38468117
47	0xbe39926e	-0.18122265
48	0xbcc21cda	-0.023695398
49	0xbec0f318	-0.37685466
50	0xbe307f1f	-0.17235993
51	0xbe808fe6	-0.25109786
52	0xbd7a940a	-0.061176337
53	0xbdeb7e59	-0.11498708
54	0xbf41146f	-0.75421804
55	0xbd985317	-0.07437723
56	0xbd9a9709	-0.07548339
57	0x3e17ca83	0.14823346
58	0xbe36537a	-0.17805281
59	0xbe959b8d	-0.29220238
60	0xbe05e354	-0.13075
61	0xbec54e3f	-0.3853626
62	0xbe160d0a	-0.14653412
63	0xbeb94ba2	-0.36190516
64	0x3db6dcba	0.08928819
65	0xbf44001d	-0.7656267
66	0xbebf31cb	-0.37342677
67	0x3c690bf2	0.014224039
68	0xbedd0ff2	-0.43176228
69	0x3f5109c0	0.816555
70	0xbe8ce3ae	-0.27517456
71	0xbe8c4628	-0.27397275
72	0xbe02ed2a	-0.12785783
73	0xbea8ec9c	-0.3299302
74	0xbe82b0df	-0.25525567
75	0xbe46012e	-0.19336388
76	0xbec5208e	-0.385014
77	0xbd851114	-0.06497398
78	0x3e08afbc	0.13348287
79	0xbe7ed043	-0.24884133
80	0xbe3e025e	-0.1855559
81	0xbeb4436e	-0.35207695
82	0xbe2eb2ae	-0.17060348
83	0xbc4fd2c7	-0.012684531
84	0xbe299382	-0.16560176
85	0x3eda629d	0.4265336
86	0x3f39ac51	0.7252856
87	0x3de0659f	0.10956883
88	0x3ee32165	0.44361416
89	0x3e988836	0.2979142
90	0xbe866944	-0.26252186
91	0x3dc7da6f	0.0975846
92	0xbdf14378	-0.11780447
93	0xbd26a788	-0.040687114
94	0x3d1e26c2	0.03861118
95	0x3dca2c4f	0.098717324
96	0xbcb0375f	-0.021510778
97	0xbe8e9188	-0.27845407
98	0xbe80329b	-0.2503861
99	0xbeaf7004	-0.3426515
100	0xbed5378a	-0.41643935
101	0x3e1e0333	0.15430908
102	0xbf40b32f	-0.7527341
103	0xbe6bdd21	-0.23033573
104	0xbe064c25	-0.13114984
105	0xbe59f8b5	-0.2128628
106	0xbdbc71ed	-0.09201417
107	0x3e0380ad	0.12842055
108	0xbe2b0c73	-0.16703968
109	0xbf085f5b	-0.532705
110	0xbeec5b71	-0.46163514
111	0xbe67090b	-0.22562043
112	0xbe312e9c	-0.17302936
113	0xbc1c6234	-0.009544898
114	0x3eaf93c6	0.3429243
115	0xbe3d690c	-0.18497103
116	0xbec4e492	-0.38455635
117	0xbeac125b	-0.33607754
118	0xbe145aef	-0.14487813
119	0x3d1ea639	0.03873274
120	0xbe9f2e0f	-0.31089827
121	0xbe812481	-0.25223163
122	0xbd0c79be	-0.03429579
123	0xbce9d07d	-0.028541798
124	0x3e8b7402	0.27236944
125	0xbf3f59ab	-0.747462
126	0x3e9289f6	0.2862088
127	0xbe62fc6c	-0.22166604
128	0x3bf5c21e	0.007499947
129	0xbc91b57f	-0.01778674
130	0x3d35c09c	0.04437314
131	0xbd68789d	-0.05675565
132	0x3d61b828	0.055107266
133	0xbcc9f6b8	-0.024653777
134	0x3d37f377	0.04490992
135	0x3d26ab19	0.040690515
136	0x3d934fba	0.07192941
137	0xbd87aba5	-0.066245355
138	0xbd410c0c	-0.04713063
139	0xbaa037ba	-0.0012223639
140	0x3d780485	0.060551185
141	0xbda3129b	-0.07962533
142	0x3d8c1205	0.068393745
143	0x3d4d27fb	0.050086956
144	0x3d698fab	0.057021778
145	0xbd75dff6	-0.06002804
146	0x3d722328	0.05911556
147	0xbd28c93d	-0.04120754
148	0x3d40ae74	0.04704137
149	0x3d98ba55	0.07457415
150	0xbd0c4956	-0.034249626
151	0x3d804867	0.0626381
152	0x3c942770	0.018085212
153	0xbd396a7d	-0.04526757
154	0x3c6bf5d5	0.014401873
155	0x3d2a7c44	0.041622415
156	0x3d990a40	0.07472658
157	0x3d277d66	0.040891074
158	0x3c22cef3	0.009937036
159	0x3c42dc9d	0.011893419
160	0x3d270c3a	0.040783145
161	0x3d3aebb7	0.04563495
162	0x3caf1b09	0.021375196
163	0xbd8872e7	-0.06662541
164	0xbd8b7cc7	-0.06810909
165	0x3c90bb17	0.017667336
166	0x3d3d335b	0.046191555
167	0xbcf0f9f6	-0.029416066
168	0x3b0017e6	0.0019545495
169	0xbbc211ad	-0.0059225173
170	0x3d2a62a8	0.041597992
171	0x3bb07e88	0.0053861775
172	0x3d09c893	0.033638548
173	0xbd23de86	-0.040007137
174	0x3ce80f28	0.02832754
175	0x3d702f2d	0.05863874
176	0x3d539bf5	0.051662404
177	0xbd0cd75d	-0.034385074
178	0x3d58cf93	0.052932333
179	0xbd93abb6	-0.07210486
180	0x3cfb55e6	0.030680608
181	0xbd8e91f9	-0.06961436
182	0x3d25e420	0.04050076
183	0x3d0a8458	0.03381762
184	0x3bafa4d5	0.0053602257
185	0xbda4a8b3	-0.08039989
186	0xbc6e4c7d	-0.014544603
187	0x3cdbb088	0.026817575
188	0xbd112de5	-0.03544416
189	0xbcc81c79	-0.02442764
190	0xbd0a700f	-0.033798274
191	0x3b84e014	0.0040550325
192	0xbd9790a1	-0.07400633
193	0x3ccd2e3c	0.02504646
194	0x3d5f5b3d	0.05453037
195	0x3bbc2fb7	0.0057429927
196	0xbd8d9f72	-0.069151774
197	0xbda81301	-0.0820675
198	0xba6b5bdc	-0.00089782267
199	0xbc88a328	-0.016679361
200	0xbdaca1c5	-0.084292926
201	0xbbab2edb	-0.0052240915
202	0x3d78c938	0.060738772
203	0x3d7193f2	0.058978982
204	0x3d8b1528	0.067911446
205	0xbd8d7e0d	-0.06908808
206	0xbb2bb73d	-0.0026201748
207	0xbcb9771b	-0.022639802
208	0x3c3b18c3	0.011419478
209	0x3d0f0e1c	0.034925565
210	0xbd462a0f	-0.048379954
211	0x3cf7d917	0.030254884
212	0xbc92527f	-0.017861603
213	0x3b8e8ed7	0.004350524
214	0x3c865377	0.016397221
215	0xbd39865d	-0.045294154
216	0xbd8de260	-0.06927943
217	0x3da84529	0.08216316
218	0xbd07bcf0	-0.03313917
219	0x3d3da4d6	0.046299778
220	0xbce70828	-0.028202131
221	0xbd19c7cb	-0.037544053
222	0xbd99c034	-0.07507363
223	0xbcbe38ad	-0.023220384
224	0xbd90fc55	-0.070793785
225	0xbd95fb9e	-0.07323383
226	0x3cbecd31	0.023291202
227	0x3d31c7ef	0.043403562
228	0xbc299f40	-0.01035291
229	0x3d9141b9	0.07092614
230	0xbda23766	-0.07920723
231	0xbd64ccd0	-0.055859387
232	0x3c0bd203	0.008533957
233	0xbd74aa07	-0.059732463
234	0xbd86792b	-0.0656608
235	0xbc8cf923	-0.017208641
236	0xbd525804	-0.05135347
237	0xbce38654	-0.027774014
238	0xbc8cabab	-0.017171701
239	0xbd5db469	-0.05412713
240	0x3d29f743	0.041495573
241	0x3ca9f37c	0.020745985
242	0x3da83eec	0.082151264
243	0x3da4fcde	0.08056043
244	0x3d1856b2	0.037192054
245	0xbd96320d	-0.07333765
246	0xbc9acc19	-0.01889615
247	0xbcb37a4c	-0.021908902
248	0x3c736f4f	0.014858081
249	0xbd437f76	-0.047728978
250	0xbd524f71	-0.051345292
251	0x3c0d1d3f	0.00861293
252	0xbd4e36d9	-0.050345276
253	0xbcb80e20	-0.022467673
254	0x3d8ad2a5	0.067784585
255	0xbdb32577	-0.0874738

fc.0.weight f4 [128, 128]
0	0x3f488bac	0.7833812
1	0xbf26713f	-0.6501655
2	0xbf76d68b	-0.96421117
3	0xbe846fd5	-0.2586657
4	0x3f28016d	0.65627176
5	0xbf16f29f	-0.5896396
6	0x3ed29e49	0.41136387
7	0xbf8948f8	-1.0725393
8	0xbecf76a8	-0.40520215
9	0xbe9f35b5	-0.31095663
10	0x3e6ec41f	0.23317002
11	0x3e0bf2ad	0.13666792
12	0xbeb7e9ac	-0.35920465
13	0xbf02dd76	-0.5111917
14	0xbf93aec5	-1.153771
15	0x3f2af0e4	0.6677382
16	0xbf507f05	-0.81443816
17	0x3e8d633c	0.27614772
18	0x3f205d8c	0.6264274
19	0xbc7f663c	-0.015588339
20	0x3f1a9bc6	0.6039394
21	0x3df9f127	0.12204199
22	0xbf9c1c94	-1.2196221
23	0xbee06983	-0.438305
24	0xbf294a9d	-0.66129476
25	0x3eba8413	0.3642889
26	0x3f51e993	0.8199703
27	0xbf85c1f8	-1.044982
28	0x3d996acb	0.07491072
29	0xbf0de8c0	-0.55433273
30	0xbe4f54e7	-0.20247231
31	0x3e3237ac	0.1740405
32	0x3fa6411c	1.298862
33	0x3f1bdf34	0.60887456
34	0xbed669c1	-0.4187756
35	0xbf03e5f8	-0.5152278
36	0xbe15bfcd	-0.14623947
37	0x3f832bb9	1.0247718
38	0x3f1c8d22	0.6115285
39	0xbf2f29a0	-0.6842289
40	0xbdd8ea6b	-0.10591587
41	0xbf368c53	-0.7130787
42	0x3f17931b	0.5920884
43	0x3f401580	0.75032806
44	0xbe3fb690	-0.18721986
45	0x3f02e860	0.51135826
46	0xbf0c6ef3	-0.54856795
47	0x3f16b9ce	0.58877265
48	0xbe15861a	-0.14601937
49	0xbf017401	-0.5056763
50	0xbdfaff61	-0.12255741
51	0x3f36178b	0.71129674
52	0xbe7ca12a	-0.24670854
53	0x3f061b8e	0.52385795
54	0x3e98c884	0.2984048
55	0xbf4aad94	-0.7917111
56	0xbf277628	-0.6541467
57	0xbf23265b	-0.637304
58	0x3ee31f38	0.44359756
59	0x3ef0c8d2	0.47028214
60	0xbdcc5c33	-0.09978523
61	0x3ee96e98	0.4559219
62	0xbf6388bf	-0.8888053
63	0x3f086925	0.5328544
64	0xbf4c6547	-0.79842037
65	0xbd8745a0	-0.06605077
66	0xbf1c62a4	-0.61088014
67	0xbe358913	-0.17728071
68	0x3ed324a3	0.4123889
69	0x3f180240	0.59378433
70	0xbeb1ed3e	-0.34751314
71	0x3f5535d9	0.8328529
72	0x3f2495be	0.6429099
73	0xbd228bfc	-0.03968428
74	0xbde284b4	-0.11060467
75	0xbeda3d98	-0.42625117
76	0x3c8b644c	0.017015599
77	0xbea90ecd	-0.33019105
78	0x3f032ef2	0.5124351
79	0xbd15a718	-0.036536306
80	0x3f00be8c	0.5029075
81	0x3f288664	0.65830064
82	0xbf4c5336	-0.7981447
83	0xbf8c141a	-1.0943635
84	0x3eee23a3	0.46511564
85	0xbf5e0ab1	-0.86735064
86	0x3e3a6c4c	0.18205374
87	0x3f6b78c3	0.9198114
88	0x3e228f22	0.15874913
89	0xbf4fd939	-0.8119083
90	0xbf3a6f0a	-0.7282568
91	0x3f708c6f	0.93964285
92	0xbf2c3dc0	-0.67281723
93	0xbf86d5b5	-1.0533968
94	0xbf17be1e	-0.5927447
95	0xbf40610d	-0.7514809
96	0xbf06616b	-0.524924
97	0xbee23f2f	-0.4418883
98	0xbed9c29a	-0.42531282
99	0x3e55e4ba	0.20888034
100	0x3e8b5e92	0.2722059
101	0x3e821c97	0.25412437
102	0xbd062dd2	-0.03275854
103	0xbec098e9	-0.3761666
104	0xbe8bb368	-0.27285314
105	0x3ee78411	0.45217946
106	0xbd3b8411	-0.045780245
107	0x3f4a0f8b	0.78929967
108	0xbef08c98	-0.46982265
109	0x3ef8cf0a	0.48595458
110	0x3ec276ec	0.37981355
111	0xbf27a997	-0.6549315
112	0x3ec3d715	0.38250032
113	0x3f2c15a7	0.6722054
114	0x3f3bad18	0.73310995
115	0xbc0165ea	-0.007897833
116	0x3ed28e0e	0.41124004
117	0x3e0ac17d	0.13550372
118	0xbf590d3c	-0.8478582
119	0xbf265bf0	-0.64984035
120	0xbd5e3ec1	-0.054259066
121	0x3ee100b8	0.4394586
122	0xbe0105ea	-0.12599912
123	0xbaa0803f	-0.0012245252
124	0xbe96d1e1	-0.29457
125	0x3ec7c9ad	0.39021054
126	0x3e2ed976	0.17075142
127	0x3c15e7d6	0.009149512
128	0xbc041571	-0.008061753
129	0x3d19ff12	0.03759677
130	0x3d6e8765	0.05823459
131	0x3da288cc	0.07936248
132	0xbd87be97	-0.06628149
133	0xbccc8030	-0.024963468
134	0xbc91a5e4	-0.017779298
135	0x3cd55e71	0.02604601
136	0x3d8b7fc7	0.06811481
137	0x3d8625f0	0.06550205
138	0xbd695029	-0.056961212
139	0x3d26c4de	0.04071509
140	0x3cf68294	0.030091561
141	0xbdcb2b24	-0.09920338
142	0x3d1e3ebd	0.03863405
143	0xbcb9c4e2	-0.022676889
144	0xbd702df9	-0.058637593
145	0xbdcbb957	-0.0994746
146	0xbd38ea81	-0.045145515
147	0x3dd2ffd5	0.10302702
148	0x3b107639	0.0022043122
149	0xb9f059b5	-0.00045843204
150	0xbd55ee4e	-0.05222922
151	0x3a0f457e	0.0005465372
152	0x3d2d55d5	0.042318184
153	0xbd06316f	-0.032761987
154	0xbc94e8f4	-0.018177487
155	0x3d14bbcc	0.03631191
156	0x3cf948b7	0.030430181
157	0x3d18c0ce	0.037293248
158	0x3b649f38	0.003488494
159	0xbd04c8bf	-0.03241801
160	0xbc6e2b55	-0.014536698
161	0x3d94edfb	0.07271954
162	0x3ce8f7f4	0.028438546
163	0x3d897899	0.06712455
164	0x3c916f3c	0.017753236
165	0x3dbf783e	0.09349106
166	0xb6fad5c6	-7.475467e-06
167	0xbda0e05c	-0.07855293
168	0xbcb75a8d	-0.022382045
169	0xbc725cc3	-0.014792624
170	0xbd8ae48d	-0.06781874
171	0x3d88e025	0.06683377
172	0xbd9db949	-0.07701356
173	0xbcae2e33	-0.021262264
174	0xbdc9968e	-0.09843169
175	0x3c9e2be3	0.019308036
176	0xbcab7022	-0.020927493
177	0x3bc138ab	0.005896648
178	0xbcbf6ca2	-0.02336723
179	0x3cc9d581	0.02463794
180	0xbd47ded7	-0.0487965
181	0x3d0a82e9	0.033816252
182	0xbd555c43	-0.05208994
183	0xbc09a2fa	-0.008400673
184	0xbbd55ddf	-0.0065114344
185	0x3aa92552	0.0012904799
186	0x3d19748f	0.037464675
187	0xbbe52a81	-0.0069935923
188	0x3d8a1952	0.06743111
189	0xbb9546ce	-0.0045555597
190	0x3d1d1e1c	0.038358793
191	0x3d56b5c6	0.052419446
192	0xbd5611ae	-0.052262954
193	0xbb000da8	-0.001953939
194	0xbda7ad97	-0.081874065
195	0x3dace79e	0.08442615
196	0xbc1a98df	-0.009435861
197	0xbd9b9efb	-0.075986825
198	0xbcb68f35	-0.022285083
199	0x3d9bf3a0	0.07614827
200	0x3d8cd996	0.06877439
201	0x3d0ae330	0.03390807
202	0xbd21195b	-0.03933082
203	0x3b0fbd1b	0.0021932784
204	0x3d8da30f	0.069158666
205	0x3ced56ce	0.028972056
206	0xbd313236	-0.043260776
207	0xbcb69f07	-0.022292627
208	0xbd1b4b20	-0.03791344
209	0x3babfce1	0.0052486514
210	0xbdbcf9d2	-0.09227337
211	0xbde69e4e	-0.11260663
212	0xbd260886	-0.040535472
213	0xbd540dac	-0.05177085
214	0xbd1f27c3	-0.03885628
215	0x3d2c16e5	0.04201402
216	0xbd3ea4cc	-0.04654388
217	0xbdbd9421	-0.09256769
218	0xbd711cee	-0.05886548
219	0xbdb2293a	-0.086992696
220	0x3cd15382	0.025552515
221	0x3d2fc2f2	0.042910524
222	0xbcf4c94f	-0.029881148
223	0x3d392647	0.04520252
224	0xbda469d6	-0.08027999
225	0x3d13365d	0.035940517
226	0x3c6bd6b4	0.014394451
227	0x3ce5e9ed	0.028065646
228	0xbc522b43	-0.012827697
229	0x3d0b8cc6	0.0340698
230	0xbc82e4c9	-0.015978234
231	0xbd6ce02f	-0.057830986
232	0xbd0ff66d	-0.03514712
233	0x3d2ba1cc	0.04190235
234	0x3d930064	0.07177809
235	0x3d12e89e	0.035866372
236	0xbce450ce	-0.027870562
237	0x3d27c6a7	0.040960934
238	0x3d99be04	0.07506946
239	0x3d717797	0.05895194
240	0x3d7a9d6c	0.061185285
241	0xbd86ca50	-0.06581557
242	0x3c0e6f60	0.008693546
243	0x3d1f2813	0.038856577
244	0x3d7eac74	0.062176183
245	0xbdc074b3	-0.093972586
246	0xbd860811	-0.06544507
247	0x3d886b8c	0.06661138
248	0x3cafa89f	0.02144271
249	0xbcdb8fea	-0.026802022
250	0xbd3302e3	-0.043703925
251	0xbc9a8f9f	-0.018867312
252	0x3d4e8680	0.050421238
253	0xbd766b72	-0.06016106
254	0xbd9ece65	-0.077542104
255	0xbbc6d133	-0.006067419

fc.0.bias f4 [128]
0	0xbd4b8fe2	-0.049697764
1	0xbcc1acdc	-0.023641996
2	0xbd88916b	-0.06668361
3	0xbd226801	-0.039649967
4	0xbdabc4a8	-0.083871186
5	0xbdae1fd3	-0.08502164
6	0xbd2365a2	-0.039891846
7	0xbe55601a	-0.20837441
8	0xbd367431	-0.044544403
9	0xbe88a2ba	-0.2668665
10	0xbe1b9b9d	-0.1519608
11	0xbd9cc680	-0.07655048
12	0xbcf033f9	-0.029321657
13	0xbda464b8	-0.08027023
14	0xbe7accdb	-0.24492209
15	0xbd3aa7b0	-0.045570076
16	0xbe258316	-0.16163287
17	0xbd28535d	-0.041095126
18	0xbd4751f0	-0.048662126
19	0xbcd01f62	-0.02540559
20	0xbd2745d5	-0.04083808
21	0xbd48c587	-0.0490165
22	0xbc857610	-0.016291648
23	0xbe906099	-0.28198698
24	0xbd6813e0	-0.05665958
25	0xbd3a9828	-0.045555264
26	0x3de3b1a8	0.111178696
27	0xbda75024	-0.081695825
28	0xbf18929f	-0.59598726
29	0xbc942fa9	-0.018089132
30	0xbf057a13	-0.52139395
31	0xbe8585ed	-0.2607874
32	0xbd6fbe62	-0.058531173
33	0xbd224b32	-0.039622493
34	0xbef36163	-0.47535238
35	0xbd2a7f65	-0.0416254
36	0xbcde09cf	-0.027104286
37	0xbcf996f1	-0.030467482
38	0xbdb238dc	-0.08702251
39	0x3b1b2c0d	0.002367738
40	0xbe458859	-0.19290294
41	0xbdc047ad	-0.09388671
42	0xbd8c3c8b	-0.06847485
43	0xbe5ad78b	-0.21371286
44	0xbd2e90f6	-0.042618714
45	0xbc79c23a	-0.015244061
46	0xbd8513ef	-0.06497943
47	0xbd6d6527	-0.057957795
48	0xbd153e40	-0.03643632
49	0xbca8191d	-0.020519787
50	0xbd8203c5	-0.06348375
51	0xbda80d09	-0.08205611
52	0xbc9197c2	-0.01777256
53	0xbcefdc60	-0.029279888
54	0xbd0e4ee7	-0.034743216
55	0x3df88219	0.12134189
56	0xbdb1dd99	-0.086848445
57	0xbdbd6cb6	-0.092492506
58	0xbddc19ec	-0.10747132
59	0xbc27cb3b	-0.010241325
60	0xbc50951d	-0.012730864
61	0xbd15c4e9	-0.03656474
62	0xbd8a8f63	-0.0676563
63	0xbe93767c	-0.28801334
64	0xbd43fb43	-0.047847044
65	0xbccc9421	-0.024972977
66	0xbc3af176	-0.011410108
67	0xbda7ec4e	-0.081993684
68	0xbea66fdc	-0.32507217
69	0xbdc3773d	-0.09544227
70	0xbd164841	-0.03669
71	0x3db020b0	0.08599985
72	0xbc06c159	-0.008224809
73	0xbd9850ab	-0.07437261
74	0xbd726b1d	-0.059184182
75	0xbda1bd14	-0.07897392
76	0xbd252a91	-0.040323798
77	0x3d1a8769	0.037726793
78	0xbd9ec1d5	-0.07751814
79	0xbc957cfe	-0.018248077
80	0xbcc34e69	-0.0238411
81	0x3ddd3bc2	0.108024135
82	0xbec5a93e	-0.38605684
83	0xbd9c7dcc	-0.07641181
84	0xbce7cd2c	-0.028296076
85	0xbf043b13	-0.5165264
86	0x3dcc9024	0.0998843
87	0xbc41d792	-0.011831181
88	0x3d8e3516	0.06943719
89	0xbecb1510	-0.39664507
90	0xbda744a1	-0.08167387
91	0x3de962ea	0.113958195
92	0xbd26d0ad	-0.040726352
93	0xbce666c5	-0.028125176
94	0xbd320cec	-0.043469355
95	0xbd0150e9	-0.031571303
96	0xbdca4d36	-0.09878008
97	0xbdb373ad	-0.08762298
98	0xbef46501	-0.4773331
99	0x3dc46a14	0.09590545
100	0xbef885c7	-0.48539564
101	0xbc5713ab	-0.013127248
102	0xbd7825bf	-0.060582872
103	0xbdad915e	-0.08474992
104	0xbd000a79	-0.031259988
105	0xbe59f776	-0.21285805
106	0xbd83b0c9	-0.064302035
107	0xbe9098bb	-0.28241524
108	0xbd3a8ad2	-0.045542546
109	0xbe647ce1	-0.22313263
110	0xbe28722c	-0.16449803
111	0xbd9d509a	-0.07681389
112	0xbdae471d	-0.085096575
113	0xbcd146aa	-0.02554639
114	0x3de03bef	0.109489314
115	0xbd069824	-0.032859936
116	0xbc6f6a12	-0.0146126915
117	0xbc683294	-0.014172215
118	0xbd6b9d6c	-0.057523176
119	0xbd02d73a	-0.031943537
120	0xbe5c6ee9	-0.21526684
121	0xbe51e082	-0.20495799
122	0xbdaeccca	-0.08535154
123	0xbda449a7	-0.080218606
124	0xbda0e2e7	-0.07855778
125	0xbd4efd09	-0.050534282
126	0xbcfea5b3	-0.03108487
127	0xbd9f1555	-0.07767741

fc.2.weight f4 [1, 128]
0	0xbe493c02	-0.19651797
1	0xbccb03ed	-0.024782145
2	0xbbd35c13	-0.006450185
3	0x3d7cf37f	0.061755653
4	0xbd187958	-0.037225097
5	0x3db0c3a5	0.08631066
6	0xbc65976a	-0.014013151
7	0xbfc01a55	-1.5008036
8	0x3e5cb278	0.21552455
9	0x3fdaa7dc	1.7082477
10	0xbf842006	-1.0322273
11	0xbcbe447a	-0.023226012
12	0xbd70e1aa	-0.05880896
13	0xbd980b18	-0.07423991
14	0x3da5f69c	0.08103678
15	0xba7ffae2	-0.00097648625
16	0xbdb1527e	-0.08658312
17	0x3e9a3ec4	0.3012601
18	0x3c71a231	0.014748142
19	0xbd275226	-0.040849827
20	0x3da3beac	0.07995352
21	0x3ac7cd1a	0.001524362
22	0xbd9f651d	-0.07782958
23	0x3ffcd48d	1.9752365
24	0xbdab1ce8	-0.08355123
25	0x3cefef6d	0.029288972
26	0x3e0a1dba	0.13487902
27	0x3bce388b	0.0062933615
28	0x40a32f48	5.0995216
29	0xbd328794	-0.04358633
30	0x401ecc45	2.4812176
31	0xbdd2766f	-0.10276496
32	0x3bab29d1	0.0052234908
33	0x3ec7f566	0.39054412
34	0x3f02b049	0.5105024
35	0x3b0b94a0	0.0021298304
36	0x3c650448	0.0139780715
37	0x3da6bba5	0.08141259
38	0x3bda4a07	0.006661657
39	0xbd90d84f	-0.070725076
40	0xbdc9432d	-0.09827266
41	0xbc7a29a0	-0.015268713
42	0xbd40e92a	-0.047097363
43	0x3e142bc2	0.14469817
44	0x3ebf4ae5	0.37361827
45	0xbcf7648b	-0.03019931
46	0xbd512437	-0.051059928
47	0x3d7bc5ae	0.06146782
48	0xbbf9229e	-0.0076030036
49	0x3e3770b1	0.17914082
50	0x3da10ef6	0.07864182
51	0xbd839228	-0.064243615
52	0xbd3b1f56	-0.04568418
53	0x3bfab353	0.0076507716
54	0x3a4f3be3	0.0007905347
55	0x3e61ae06	0.22039041
56	0x3e9d8942	0.30768782
57	0x3cdba6d0	0.02681294
58	0xbd7db537	-0.061940398
59	0xbb7034e1	-0.0036652612
60	0x3d9f169e	0.07767986
61	0x3b516a01	0.0031954052
62	0xbbe02721	-0.006840602
63	0x38513ae0	4.9884315e-05
64	0xbba03d99	-0.0048901555
65	0xbd3affb4	-0.045654014
66	0x3ad9d8ea	0.0016620432
67	0x3de5f20a	0.11227806
68	0x40447ca5	3.0701077
69	0xbd3d92ec	-0.046282694
70	0x3d814fec	0.06314072
71	0x3e000732	0.12502745
72	0x3b87c80c	0.0041437205
73	0x3c2e13ae	0.010624809
74	0xbdac89bd	-0.08424709
75	0x3d8bc04b	0.06823786
76	0xbd0298a6	-0.03188386
77	0xbe0101ea	-0.12598386
78	0xbe9a8d90	-0.3018613
79	0x3bc07328	0.0058731027
80	0x3d8cbc72	0.068718806
81	0x3e239680	0.1597538
82	0x3e429f1e	0.19006011
83	0x3cf70254	0.030152477
84	0xbd3ce66a	-0.046118177
85	0x3f948d2b	1.1605581
86	0x3e030f3a	0.12798777
87	0x3dad3b8e	0.08458625
88	0x3dcc6468	0.099800885
89	0x3f329790	0.69762516
90	0x3cbbb51f	0.022913514
91	0x3e279345	0.16364773
92	0x3db4fe37	0.0883755
93	0x3b9383b9	0.0045017865
94	0x3b5fb987	0.0034137683
95	0x3bb35885	0.005473199
96	0xbd063f5d	-0.03277527
97	0xbd240181	-0.040040497
98	0x3f61d875	0.8822091
99	0x3e1dcabe	0.15409371
100	0x3f0f271e	0.55919063
101	0xb6a2a920	-4.847665e-06
102	0x3d5f392c	0.054497883
103	0x3d9e3200	0.077243805
104	0xbbc478c9	-0.005995844
105	0xbf017711	-0.50572306
106	0x3d237b5d	0.03991257
107	0xbe3f127d	-0.18659396
108	0x3ccad103	0.024757868
109	0xbf2a5a69	-0.66544205
110	0x3f0b232c	0.54350543
111	0x3d8304f5	0.0639743
112	0xbd3a2df5	-0.045453984
113	0x3c41ca96	0.011828085
114	0xbde78d89	-0.113062926
115	0x3d94fddb	0.072749816
116	0x3da5a877	0.08088773
117	0x3c8788da	0.016544748
118	0xbd1620f7	-0.03665253
119	0x3b4a9a04	0.0030914554
120	0x3f9435ab	1.1578878
121	0x3fb41943	1.4070209
122	0x3bbc306f	0.0057430784
123	0xbd2acfff	-0.041702267
124	0xbd94cab8	-0.07265228
125	0xbca7b643	-0.020472651
126	0xbda1268e	-0.07868682
127	0x3db118cf	0.0864731
