critic1_model.pth (torch, 345928 bytes, 7 tensors)

lstm.weight_ih_l0 f4 [512, 5]
-2.8159263 -3.1018226 -2.657303 -0.89769614 -1.8705082 -1.0552772 -0.21648386 0.08222856
-0.034304373 0.08700588 -0.8831306 -0.70661557 -0.7846086 -0.5993519 -0.63879687 -0.8267565
-0.8461979 -0.96363175 -0.63640827 -1.0790473 -0.868079 -0.96622527 -0.9541729 -0.77949154
-0.7895142 -0.5504363 -0.9774076 -1.8471119 -1.9963101 -1.9897971 0.07538186 -0.7627727
-0.5304202 -0.9381437 -1.4329858 -0.838975 -0.8673323 -0.7621692 -0.51420003 -0.48327532
0.17877403 -0.38121238 -0.70156854 -0.9679416 -1.4533682 -0.29782376 -0.39428043 -0.2681901
-0.33623853 -0.59787947 -1.1280949 -0.9796639 -1.6588618 -1.8700279 -1.5704958 -0.5013978
-0.50583464 -0.6863903 -0.3323369 -1.0852574 -1.1920822 -1.4118965 -0.13629341 0.1138427
0.09421002 -0.8416561 -0.7549782 -0.55195445 -0.46060756 -0.9317168 -0.81738144 -0.88489056
-0.5838101 -0.53341216 -1.02157 -1.8976424 -2.0202289 -3.2911232 -3.4178743 -1.3906052
-1.5369698 -1.1673536 -1.4071124 -0.49254137 -1.7389098 -0.2584197 -0.33696595 -0.46097723
-0.5233248 -0.56172436 -0.89657044 -0.992497 -0.9121077 -1.1220449 -0.46075663 -1.7110717
0.3763622 -0.17457606 -0.6739384 -1.3345046 0.09441403 -0.6638848 -0.9442304 -1.1589907
-1.0091413 -1.049955 -1.1478878 -1.4363385 -1.3530762 -1.1940142 -0.39422992 -0.72278225
-1.0148441 -0.67922443 -1.0368316 -2.096973 -2.0415142 -2.731465 -3.7536585 -1.314661
-0.2551596 -0.5817195 -1.7493123 -1.44146 -1.3188857 -0.973269 -1.0857404 -1.5679464
-1.6298501 -1.799275 -0.115933724 -0.5754541 -0.97493404 -0.92500424 -0.54675895 -2.7895231
-4.1035204 -3.4911852 -1.7929024 -1.0010344 -1.1691947 -0.6103815 -1.3719537 -2.1193254
-2.256119 -0.8393156 -0.9200936 -0.73149973 -0.71358836 -0.6596931 -1.9885299 -1.8532833
-0.8259641 -0.39848948 -0.67837775 -1.3964592 -2.412977 -1.5380791 -1.3049923 -1.6041487
-0.8242137 -0.7832208 -0.8939988 -0.7937986 -1.213978 -0.88415504 -0.8441831 -0.79653525
-0.67676574 -0.87482774 -2.7250643 -3.0379102 -1.0258218 -0.21683718 -0.6786129 -0.50526226
-0.64996374 -0.6343632 -0.31530148 -0.45980662 2.533779 0.8274058 1.0292091 0.18722887
-0.39491245 -0.80214256 -0.7769413 -0.79882425 -0.47457185 -0.5646455 -1.8893684 -2.8688188
-3.1729398 -1.6517866 -1.6741207 -2.8625846 -3.381499 -3.2267756 -3.735381 -2.5440633
0.6924392 1.2673247 0.67226815 1.0046299 -0.65521336 -0.6634713 -0.84822124 -0.90628934
-1.1904918 -1.1232611 -1.3022608 -2.2348778 -3.4459238 -3.345631 -2.7423637 -4.3042717
-4.589901 -4.33536 -4.2362413 -5.223828 -5.9196362 -5.904978 -8.038759 -1.6054657
-1.549578 -1.0540483 -1.0395598 -0.70461625 -0.49244282 -0.67537415 -0.8233309 -1.0377716
-1.3614203 -1.6199436 -1.5514071 -0.7420825 -1.2256163 -1.2484102 -0.92946136 0.08223352
-0.86168975 -0.72910416 -1.3603865 -2.7521884 -1.8272432 -0.67555124 -0.77739954 -0.67225045
-1.3255061 -2.4046025 -0.4818582 -0.24672328 -0.44767666 0.28909293 -0.25896302 -0.46197048
00000000: 2338 34c0 4384 46c0 4111 2ac0 6acf 65bf
00000010: d06c efbf 5313 87bf f2ad 5dbe 7267 a83d
00000020: be82 0cbd 2430 b23d d914 62bf c2e4 34bf
00000030: 1cdc 48bf 206f 19bf 3188 23bf 50a6 53bf
00000040: 6da0 58bf 92b0 76bf a7eb 22bf 391e 8abf
00000050: 6d3a 5ebf 8a5a 77bf ad44 74bf c28c 47bf
00000060: 9a1d 4abf 65e9 0cbf 6237 7abf 2a6e ecbf
00000070: 1787 ffbf acb1 febf ce61 9a3d 1245 43bf
00000080: 9ec9 07bf 2f2a 70bf 146c b7bf 11c7 56bf
00000090: 7d09 5ebf 851d 43bf 9da2 03bf dd6f f7be
000000a0: 8a10 373e 452e c3be ff99 33bf 05cb 77bf
000000b0: f807 babf 5b7c 98be 20df c9be 3650 89be
000000c0: 7527 acbe a10e 19bf 6a65 90bf 41cb 7abf
000000d0: 9555 d4bf 135d efbf 0206 c9bf 9b5b 00bf
000000e0: 617e 01bf 46b7 2fbf 1028 aabe b7e9 8abf
000000f0: 2696 98bf 06b9 b4bf 8090 0bbe 5d26 e93d
00000100: 2ff1 c03d c676 57bf 4046 41bf e34c 0dbf
00000110: c1d4 ebbe fe84 6ebf e93f 51bf 3088 62bf
00000120: 9474 15bf b38d 08bf cec2 82bf f2e5 f2bf
00000130: 6e4b 01c0 c3a1 52c0 74be 5ac0 5aff b1bf
00000140: 6dbb c4bf d86b 95bf 421c b4bf 622e fcbe
00000150: 9994 debf 964f 84be cd86 acbe 3505 ecbe
00000160: 9df8 05bf 2bcd 0fbf a485 65bf 4914 7ebf
00000170: e47f 69bf 2b9f 8fbf 4be8 ebbe 6604 dbbf
00000180: 8cb2 c03e 11c4 32be 3a87 2cbf 0cd1 aabf
00000190: 255c c13d 5bf4 29bf 15b9 71bf cf59 94bf
000001a0: 8b2b 81bf ed64 86bf fded 92bf f1d9 b7bf
000001b0: 9a31 adbf 75d5 98bf 81d8 c9be 4208 39bf
000001c0: 69e6 81bf a7e1 2dbf e6b6 84bf ce34 06c0
000001d0: 2ba8 02c0 53d0 2ec0 f13b 70c0 d046 a8bf
000001e0: 47a4 82be 92eb 14bf 77e9 dfbf c381 b8bf
000001f0: 3fd1 a8bf 2828 79bf 8bf9 8abf 78b2 c8bf
00000200: ee9e d0bf a54e e6bf a96e edbd f650 13bf
00000210: 4795 79bf 14cd 6cbf 65f8 0bbf 8c87 32c0
00000220: 0a50 83c0 946f 5fc0 d37d e5bf e521 80bf
00000230: 2ca8 95bf f641 1cbf 2e9c afbf 07a3 07c0
00000240: 4164 10c0 63dd 56bf 418b 6bbf 9143 3bbf
00000250: baad 36bf a6e1 28bf 2688 febf 6338 edbf
00000260: 6272 53bf d006 ccbe 2aaa 2dbf 2dbf b2bf
00000270: 376e 1ac0 c7df c4bf fd09 a7bf bf54 cdbf
00000280: abff 52bf 2981 48bf 1bdd 64bf 6336 4bbf
00000290: a263 9bbf fc57 62bf 621c 58bf bce9 4bbf
000002a0: 8540 2dbf b6f4 5fbf 7467 2ec0 1f6d 42c0
000002b0: 214e 83bf 910a 5ebe 93b9 2dbf de58 01bf
000002c0: 0664 26bf a065 22bf 326f a1be c66b ebbe
000002d0: 6f29 2240 ded0 533f 20bd 833f edb8 3f3e
000002e0: f731 cabe 3759 4dbf a0e5 46bf bf7f 4cbf
000002f0: 15fb f2be 9c8c 10bf d3d6 f1bf ba9a 37c0
00000300: 7211 4bc0 be6d d3bf 9649 d6bf 9634 37c0
00000310: 7b6a 58c0 7e83 4ec0 7b10 6fc0 efd1 22c0
00000320: b243 313f b237 a23f c419 2c3f b697 803f
00000330: 10bc 27bf 41d9 29bf 0725 59bf 9402 68bf
00000340: 0962 98bf 05c7 8fbf 7bb0 a6bf 3d08 0fc0
00000350: 048a 5cc0 d11e 56c0 e382 2fc0 98bc 89c0
00000360: 78e0 92c0 45bb 8ac0 4a8f 87c0 9929 a7c0
00000370: a96d bdc0 94f5 bcc0 c29e 00c1 e67f cdbf
00000380: 9258 c6bf 0eeb 86bf 4c10 85bf bb61 34bf
00000390: 7721 fcbe 52e5 2cbf d0c5 52bf b3d5 84bf
000003a0: 0543 aebf 505a cfbf 8294 c6bf 1ef9 3dbf
000003b0: ffe0 9cbf e8cb 9fbf 2ef1 6dbf 0c6a a83d
000003c0: b397 5cbf 92a6 3abf 2521 aebf db23 30c0
000003d0: 1be3 e9bf edf0 2cbf a803 47bf 9b18 2cbf
000003e0: 2faa a9bf 02e5 19c0 1eb6 f6be 07a5 7cbe
000003f0: e035 e5be fd03 943e cd96 84be 6587 ecbe

lstm.weight_hh_l0 f4 [512, 128]
0.058793925 -0.017262315 0.025335576 -0.02908498 -0.087673776 0.076169945 -0.025112513 0.040304735
0.030928958 0.01288917 -0.0056984117 -0.077954374 0.051930796 -0.03585836 0.05188376 0.06472115
-0.058822196 0.07539565 0.056084357 -0.05763903 0.012579728 -0.06736377 -0.043787804 -0.0023806437
-0.052578226 0.06768388 -0.024251675 -0.0043369737 0.00674319 0.081636496 0.039938953 -0.054811038
-0.034440517 0.069460146 -0.03957079 -0.05177681 -0.087715365 0.07838305 -0.088194594 -0.050410885
-0.07633917 -0.025232328 0.0627151 0.027999353 -0.06476977 0.024233932 0.0070761605 0.027428083
-0.07712753 0.00033802824 0.05515229 0.012073165 -0.073700145 -0.03058287 -0.029621374 0.081044644
-0.073134825 -0.01907579 0.06928033 -0.029867543 0.07518626 -0.018294893 -0.03950605 0.06642159
0.0048139286 0.07763051 0.025313027 0.0788802 -0.062153284 -0.051115453 -0.0838934 -0.038579866
0.01633771 -0.061617035 0.01704683 -0.06810756 -0.018461816 0.079310834 -0.040364206 0.019361313
-0.080210544 -0.04239133 -0.012632738 0.08493775 -0.048038807 0.059868366 -0.059396163 -0.059192266
0.055644114 0.015691482 -0.03893766 0.012828384 0.050205093 -0.078851305 -0.08756942 0.0029520495
0.009468858 0.012372892 0.026873283 -0.060788926 0.07518462 0.08688023 0.054393277 0.05883227
0.014376606 0.050740346 0.015719963 0.007512623 -0.07890727 0.023922667 -0.016436744 -0.022043528
0.018953564 0.021561727 0.035862952 -0.08041414 -0.07234991 -0.05454552 0.0132924095 0.016430201
-0.041386507 0.038940452 0.056785777 0.07965495 0.023187036 -0.0013617014 0.014633575 0.007453175
0.01735861 0.011248256 0.051147625 -0.08422252 -0.014443556 0.047091715 0.0554856 -0.024519762
0.027461475 -0.016781272 -0.009129692 -0.020819984 -0.0026805606 -0.060882524 0.013356831 -0.025490582
0.018942744 -0.023102447 -0.062796086 -0.02532366 -0.03588466 -0.07546838 0.036656473 -0.007899773
0.071304135 0.021440534 -0.086114794 -0.039029233 -0.079031534 -0.06374706 0.08525803 -0.059944946
-0.002711096 -0.07651458 -0.052411817 0.06818248 0.019904343 -0.047444496 -0.07425372 0.05964801
-0.005885365 -0.06367604 -0.045136947 0.014441975 0.052827027 0.05128714 -0.053787228 -0.017734013
-0.046902128 -0.0024202932 0.08052125 -0.04170257 0.038928483 -0.0037425242 -0.08804275 -0.058679212
-0.027302496 -0.057943583 0.07249609 0.07492026 0.017000774 0.030636722 0.07449341 -0.071551144
0.004773078 0.01593448 -0.059722494 0.06006833 -0.05702912 -0.0406396 0.079811886 -0.023651652
0.044744886 -0.032476675 0.042739432 0.056542493 0.08122171 0.0081540765 -0.045034908 0.05259661
-0.03408013 -0.07353629 -0.08182623 -0.075729854 -0.036074582 0.047639508 -0.07830655 0.0627414
-0.02176652 0.06141016 -0.05615347 0.024113739 -0.020973241 0.021307044 -0.043064605 0.004934911
0.03897001 -0.07651013 0.05201824 -0.064352304 0.05110869 0.019237213 -0.0732801 -0.036827516
-0.0024511341 -0.07565247 -0.012432835 0.07361263 0.04815176 -0.032922093 -0.01108263 0.07331049
-0.025315061 -0.03082926 0.026641898 0.033300847 -0.07314236 0.04056045 0.019125776 -0.072990514
-0.08364989 -0.028225511 0.087704524 -0.062131178 -0.009468838 0.01402862 -0.013645316 -0.08471731
00000000: e6d1 703d b369 8dbc 8e8c cf3c a043 eebc
00000010: 4f8e b3bd fdfe 9b3d c2b8 cdbc 9416 253d
00000020: ba5e fd3c 192d 533c beb9 babb 8ba6 9fbd
00000030: 63b5 543d 37e0 12bd 1184 543d 868c 843d
00000040: 8bef 70bd 0969 9a3d b6b8 653d e716 6cbd
00000050: 341b 4e3c 04f6 89bd d75a 33bd 9304 1cbb
00000060: 445c 57bd d99d 8a3d 73ab c6bc 2c1d 8ebb
00000070: faf5 dc3b 0931 a73d 0797 233d 8a81 60bd
00000080: 8011 0dbd 1f41 8e3d fb14 22bd ec13 54bd
00000090: 1da4 b3bd 4b87 a03d 5e9f b4bd a57b 4ebd
000000a0: b657 9cbd 07b4 cebc c670 803d e65e e53c
000000b0: 03a6 84bd 3d86 c63c 23df e73b dcb0 e03c
000000c0: 0af5 9dbd 6239 b139 5ee7 613d 86ce 453c
000000d0: 1af0 96bd ed88 fabc 86a8 f2bc bcfa a53d
000000e0: b6c7 95bd d544 9cbc d8e2 8d3d c7ac f4bc
000000f0: 41fb 993d 2cdf 95bc 19d1 21bd 0b08 883d
00000100: 29be 9d3b bffc 9e3d 445d cf3c f18b a13d
00000110: 7194 7ebd 705e 51bd 4ed0 abbd ec05 1ebd
00000120: a9d6 853c 2562 7cbd cba5 8b3c fa7b 8bbd
00000130: 3c3d 97bc b86d a23d f054 25bd 9e9b 9e3c
00000140: 6d45 a4bd 88a2 2dbd 8bf9 4ebc d8f3 ad3d
00000150: 57c4 44bd 8838 753d 6449 73bd 9773 72bd
00000160: 15eb 633d 6c8b 803c 197d 1fbd 242e 523c
00000170: dba3 4d3d cb7c a1bd 9957 b3bd 2c77 413b
00000180: 4523 1b3c acb7 4a3c 5c25 dc3c cffd 78bd
00000190: 65fa 993d 43ee b13d 7ccb 5e3d 1bfa 703d
000001a0: db8b 6b3c 1cd5 4f3d 27c7 803c 732c f63b
000001b0: 239a a1bd 78f9 c33c 5aa6 86bc a194 b4bc
000001c0: 8144 9b3c 38a2 b03c 08e5 123d 2bb0 a4bd
000001d0: 312c 94bd 206b 5fbd 68c8 593c a198 863c
000001e0: e684 29bd 0680 1f3d 3498 683d 2222 a33d
000001f0: bdf2 bd3c 1e7b b2ba aac1 6f3c c339 f43b
00000200: a533 8e3c 9b4a 383c 2c80 513d db7c acbd
00000210: aaa4 6cbc 3ee3 403d de44 633d abdd c8bc
00000220: e3f6 e03c e178 89bc b494 15bc ac8e aabc
00000230: 58ac 2fbb f45f 79bd 9cd6 5a3c a0d1 d0bc
00000240: d02d 9b3c 5841 bdbc 3c9b 80bd 9073 cfbc
00000250: cbfb 12bd 2a8f 9abd 1925 163d 0d6e 01bc
00000260: e707 923d 0fa4 af3c f45c b0bd 1edd 1fbd
00000270: 49db a1bd d28d 82bd c39b ae3d d588 75bd
00000280: a5ac 31bb adb3 9cbd c6ad 56bd 42a3 8b3d
00000290: 6f0e a33c 2955 42bd 5612 98bd 7951 743d
000002a0: 05da c0bb 9568 82bd 85e1 38bd 099e 6c3c
000002b0: 2761 583d 7712 523d ff4f 5cbd ec46 91bc
000002c0: 721c 40bd c89d 1ebb 53e8 a43d 50d0 2abd
000002d0: 7973 1f3d 2345 75bb c24f b4bd 9d59 70bd
000002e0: 7ca9 dfbc 4056 6dbd d478 943d cb6f 993d
000002f0: 3545 8b3c ddf9 fa3c 0090 983d 6889 92bd
00000300: 7b67 9c3b 0789 823c 939f 74bd 360a 763d
00000310: 5e97 69bd b675 26bd 6a74 a33d 1cc1 c1bc
00000320: 6a46 373d 4306 05bd 8b0f 2f3d 1a99 673d
00000330: 9157 a63d ad98 053c 8676 38bd 8b6f 573d
00000340: 9b97 0bbd 329a 96bd 8394 a7bd 4118 9bbd
00000350: f1c2 13bd a521 433d 2f5f a0bd 907e 803d
00000360: b34f b2bc 3889 7b3d 2e01 66bd 2d8a c53c
00000370: 13d0 abbc 1c8c ae3c 8364 30bd 09b5 a13b
00000380: 049f 1f3d 58b1 9cbd 1411 553d 24cb 83bd
00000390: 5957 513d 5c97 9d3c e113 96bd 73d8 16bd
000003a0: 35a3 20bb afef 9abd 17b3 4bbc 38c2 963d
000003b0: c83a 453d 51d9 06bd eb93 35bc cf23 963d
000003c0: 8861 cfbc a58d fcbc 1c40 da3c 7866 083d
000003d0: a9cb 95bd b722 263d a9ad 9c3c 0d7c 95bd
000003e0: a250 abbd 3039 e7bc 6e9e b33d 437d 7ebd
000003f0: 2f23 1bbc 4cd8 653c 9a90 5fbc 4580 adbd

lstm.bias_ih_l0 f4 [512]
0.33195847 0.023123235 -1.4059398 -1.2374014 -1.4505265 0.29194033 0.15687323 -1.5090889
-0.36612505 0.089439176 0.16657563 -0.77575713 -0.76394933 -1.2952262 -1.1217209 1.6052297
0.14701362 -0.13826549 1.0016402 -0.42907366 0.22754939 -0.0407272 -0.5400872 0.8154773
0.97909576 0.08420038 0.046288643 0.58066064 0.4022957 -1.3922399 -1.2123376 0.91105
0.614104 -1.0742399 0.56495976 -0.3499612 1.035076 0.08901221 1.2771555 0.6229801
0.43306068 -0.38258454 0.48970744 1.001272 1.6162561 -1.3360788 -0.26590517 1.84982
0.1920609 1.0202235 -0.46104607 -0.46880913 0.346923 -0.25791773 0.5260082 -0.49008194
0.8827564 -1.4945481 0.5865271 -0.083429724 -0.32965854 0.84005105 1.7001725 -0.52192163
-0.82738966 -1.3940549 0.28960562 1.2943306 -0.19411673 -0.3748833 -0.05492508 -0.016315691
0.06887749 0.123611584 -0.4727116 -0.05237294 -0.9882 -1.4005339 0.75423217 -1.5070059
-0.28186283 -0.35411036 -1.43026 -0.56911457 0.6331111 0.026050705 1.2739727 0.3290337
1.0369557 -0.27447256 0.39556426 0.55383146 0.13150004 0.041135818 0.39258975 0.94673026
-1.3542407 0.33049637 -0.091702715 0.12768659 1.266169 0.21287042 -0.07540716 1.0340447
0.91582125 0.21616639 0.6050286 0.2856376 0.20466453 0.50691366 -0.70042264 -0.21124355
-1.085161 -1.3899236 0.16247244 -0.3796116 -1.357879 -1.5501683 0.11432271 0.8352049
0.66991794 -0.20910926 0.26102203 -0.18287836 0.22455105 -0.47105524 -0.19600683 0.40911877
-0.029846417 0.07320058 0.031089116 -0.07168733 -0.041563544 0.022080617 -0.06369438 0.011192274
-0.037490107 -0.017875785 -0.015726527 0.004855359 0.06830015 0.0063643213 0.07804496 -0.017351395
0.034336478 -0.08052669 -0.0072906143 -0.031186033 -0.037665393 -0.019407107 0.03527488 -0.068021536
-0.0060779233 0.0399244 0.04471535 -0.07210194 0.07294974 0.07892641 0.08585583 -0.047815967
-0.08150859 0.07293275 -0.035916068 0.015440803 -0.043862816 0.0075443597 -0.050606806 0.06584642
0.08739204 -0.024057146 0.030038837 0.02448795 -0.0071804533 0.07381483 0.061424647 -0.030335236
0.06821009 0.021030739 0.039073035 -0.044718638 -0.027971756 0.054102506 0.06104423 0.030238898
0.018178968 0.056592807 -0.06421801 0.009905152 -0.04300225 0.056867044 -0.054679435 0.068910226
0.083975375 -0.01284992 0.06938728 0.08730453 -0.06516197 -0.0049728327 -0.03749982 -0.009245112
-0.05265094 0.0019322012 0.006963439 0.03714933 -0.03000139 0.026253007 -0.013799995 0.062561095
0.08183705 0.07821459 -0.019113133 -0.03418397 -0.0007460203 -0.0610676 -0.040998094 0.010088765
0.007276474 0.056739457 0.07262492 -0.00574765 0.00347525 -0.03779132 -0.074997745 -0.07658825
0.039870612 0.010792997 -0.0020167057 -0.04681756 0.015600371 0.025187494 -0.05705756 0.021356557
-0.010500624 -0.05639966 -0.087104164 -0.017022427 0.028368896 -0.048114344 0.04714048 0.06988303
-0.03935542 0.041465238 -0.060422227 -0.079658024 0.08246936 -0.04994429 -0.08001249 -0.053159386
0.04823415 -0.015800178 -0.04314677 -0.05869174 -0.03823661 0.05081631 0.08089521 -0.06056641
00000000: 76f6 a93e f06c bd3c d6f5 b3bf 2b63 9ebf
00000010: daaa b9bf 3479 953e 60a3 203e d329 c1bf
00000020: be74 bbbe e32b b73d cd92 2a3e 0598 46bf
00000030: 2f92 43bf f9c9 a5bf 8d94 8fbf 2b78 cd3f
00000040: bd8a 163e 7895 0dbe bf35 803f 8baf dbbe
00000050: b502 693e 91d1 26bd 2843 0abf 1fc3 503f
00000060: 05a6 7a3f 4071 ac3d 2999 3d3d 2da6 143f
00000070: b4f9 cd3e eb34 b2bf e12d 9bbf 933a 693f
00000080: eb35 1d3f b180 89bf 34a1 103f 1d2e b3be
00000090: 5f7d 843f 094c b63d d579 a33f a07b 1f3f
000000a0: 21ba dd3e 1fe2 c3be efba fa3e ae29 803f
000000b0: 7be1 ce3f a104 abbf b924 88be e7c6 ec3f
000000c0: 9dab 443e af96 823f 3b0e ecbe c007 f0be
000000d0: e49f b13e cb0d 84be 79a8 063f 05ec fabe
000000e0: 53fc 613f 5a4d bfbf a426 163f 34dd aabd
000000f0: 01c9 a8be 960d 573f 419f d93f a89c 05bf
00000100: cfcf 53bf 6470 b2bf 3047 943e a0ac a53f
00000110: 89c6 46be b4f0 bfbe 1ff9 60bd 7ca8 85bc
00000120: a40f 8d3d 1228 fd3d 4107 f2be 0285 56bd
00000130: adfa 7cbf b244 b3bf 5c15 413f 92e5 c0bf
00000140: 5350 90be f44d b5be c212 b7bf 7eb1 11bf
00000150: 9213 223f 4a68 d53c 8a11 a33f 1b77 a83e
00000160: f7ba 843f ab87 8cbe 6687 ca3e e6c7 0d3f
00000170: f2a7 063e 087e 283d 8601 c93e ea5c 723f
00000180: c257 adbf d236 a93e a2ce bbbd 46c0 023e
00000190: d311 a23f b4fa 593e 126f 9abd 945b 843f
000001a0: 4373 6a3f b95a 5d3e 28e3 1a3f 173f 923e
000001b0: 9493 513e 18c5 013f e64e 33bf 3b50 58be
000001c0: 8ee6 8abf 04e9 b1bf 2d5f 263e 745c c2be
000001d0: fbce adbf ea6b c6bf 0622 ea3d fdcf 553f
000001e0: be7f 2b3f bd20 56be aea4 853e 7744 3bbe
000001f0: b6f0 653e 272e f1be 04b6 48be 0478 d13e
00000200: 7980 f4bc 30ea 953d 9aae fe3c cfd0 92bd
00000210: 893e 2abd 69e2 b43c 3372 82bd cd5f 373c
00000220: 3a8f 19bd 3d70 92bc ebd4 80bc b419 9f3b
00000230: f3e0 8b3d cc8b d03b 09d6 9f3d 8324 8ebc
00000240: 68a4 0c3d 2deb a4bd 1be6 eebb da79 ffbc
00000250: 0747 1abd a7fb 9ebc 647c 103d e04e 8bbd
00000260: 5129 c7bb c587 233d 7127 373d 2faa 93bd
00000270: ac66 953d 2ba4 a13d 2ed5 af3d adda 43bd
00000280: faed a6bd c45d 953d ba1c 13bd 6cfb 7c3c
00000290: 7fa9 33bd ad36 f73b 1549 4fbd 7dda 863d
000002a0: 99fa b23d 7e13 c5bc 0214 f63c f49a c83c
000002b0: 024a ebbb 3b2c 973d 6998 7b3d 9a81 f8bc
000002c0: bbb1 8b3d a848 ac3c 0c0b 203d e42a 37bd
000002d0: 0625 e5bc 979a 5d3d 8409 7a3d 91b7 f73c
000002e0: 0fec 943c dccd 673d bb84 83bd 3849 223c
000002f0: 2123 30bd 6bed 683d 8bf7 5fbd ce20 8d3d
00000300: 48fb ab3d 7988 52bc eb1a 8e3d b8cc b23d
00000310: a473 85bd 25f3 a2bb 6999 19bd cf78 17bc
00000320: 83a8 57bd ea41 fd3a 8f2d e43b e529 183d
00000330: 7ac5 f5bc 8c10 d73c 6019 62bc 0820 803d
00000340: 2f9a a73d f92e a03d 2593 9cbc 7e04 0cbd
00000350: 9390 43ba 0522 7abd 9eed 27bd 594b 253c
00000360: 7d6f ee3b a267 683d 60bc 943d c856 bcbb
00000370: 05c1 633b 12cb 1abd 6b98 99bd 4dda 9cbd
00000380: 5e4f 233d 1cd5 303c b52a 04bb c5c3 3fbd
00000390: b398 7f3c 0156 ce3c 30b5 69bd f2f3 ae3c
000003a0: cf0a 2cbc 5403 67bd ab63 b2bd 9e72 8bbc
000003b0: e365 e83c 8c13 45bd 6016 413d d61e 8f3d
000003c0: 2633 21bd 74d7 293d 4c7d 77bd bf23 a3bd
000003d0: b2e5 a83d 6292 4cbd 97dd a3bd a8bd 59bd
000003e0: 2c91 453d 606f 81bc abba 30bd c066 70bd
000003f0: fe9d 1cbd c324 503d 63ac a53d 7c14 78bd

lstm.bias_hh_l0 f4 [512]
0.30945846 0.11689033 -1.5693347 -1.2320492 -1.4232929 0.2836279 0.05160011 -1.4205693
-0.36408862 0.12742355 0.1789359 -0.7564323 -0.7609131 -1.3173587 -1.2278686 1.5363235
0.27805507 -0.19775093 1.0203747 -0.4687466 0.3381492 0.009729055 -0.47973964 0.8290144
0.9371139 0.04534105 0.063101925 0.5228685 0.5058394 -1.3096493 -1.2686653 0.9222034
0.49942347 -1.061025 0.64384264 -0.45391938 1.1437829 0.13129808 1.3224016 0.52351
0.41531345 -0.3967094 0.51777583 0.9247594 1.6719278 -1.4303088 -0.21102092 1.8653969
0.17805699 1.0317456 -0.47134233 -0.41627467 0.25478822 -0.20402227 0.59122163 -0.49829122
0.82675254 -1.396194 0.5802016 -0.082487985 -0.3278329 0.8897941 1.7005438 -0.40832382
-0.7436991 -1.3280653 0.18767159 1.1870712 -0.24318443 -0.32647926 -0.026442865 -0.116377585
-0.004448624 0.06628458 -0.49107495 -0.046823703 -1.0115271 -1.3705927 0.6734875 -1.3826703
-0.20457765 -0.40414658 -1.5020885 -0.55079395 0.5247953 0.12356049 1.2430152 0.3438042
0.9834287 -0.378266 0.44033015 0.48402825 0.14826311 -0.04334404 0.42788127 0.9627309
-1.3933268 0.26238468 -0.05349928 0.030748803 1.1855589 0.14645848 -0.045734283 1.0205249
0.76536477 0.24089876 0.6379557 0.30337727 0.21306632 0.5822654 -0.6359789 -0.17186634
-0.99537736 -1.3353933 0.20530978 -0.2649192 -1.3391415 -1.6848353 0.08432299 0.8576397
0.721833 -0.18165664 0.1481554 -0.108194165 0.28686476 -0.4558221 -0.14033303 0.4102357
-0.075905345 0.05672992 0.01589972 0.079027444 0.013131599 -0.07659188 -0.040208787 0.080148086
-0.052014615 -0.011037427 -0.05334227 -0.08410509 0.003860335 0.043401413 0.047578335 0.0061558527
-0.04834552 -0.015824508 0.009684924 0.014898394 -0.062336475 -0.02911596 0.077030115 0.032414224
-0.043265402 0.021537472 -0.058368135 0.0501249 -0.04586636 0.036523677 0.050113592 -0.08173849
0.07246847 -0.08586163 -0.04591755 -0.02232862 -0.026167281 0.039692175 -0.06661156 -0.03629847
-0.005110927 0.026419088 -0.08716308 0.03137423 -0.039798543 0.07099607 -0.053902574 -0.015014889
-0.03940023 -0.07859541 0.07001651 0.009256206 -0.076543175 -0.004134174 -0.06982164 -0.012201312
-0.014481489 -0.013346874 -0.03372323 0.025537692 0.030048922 0.005365631 -0.057239316 -0.03204334
-0.014254622 -0.07995863 -0.007276116 -0.07734918 0.076510414 -0.06788628 0.07420905 -0.041154776
-0.0137351835 -0.039484482 0.02697532 -0.004718972 0.026554916 -0.068182334 -0.080079414 0.042047117
0.08114008 0.011258445 0.045572788 -0.055210516 0.04719626 -0.073719904 0.026464606 -0.06861195
0.055735856 0.028013293 -0.07405555 -0.08019768 -0.060895387 0.010565266 0.021635821 0.06845081
-0.07346183 0.03336729 -0.025469182 -0.003133323 0.008507373 -0.023362124 -0.04420379 -0.03208141
0.02160047 0.04918086 0.044611014 0.062403686 -0.0124224145 -0.039865587 -0.04791217 0.034557242
0.00290396 0.06448338 0.0059489748 0.0061901705 -0.050487984 -0.031025622 -0.07927371 0.023176067
0.016173443 -0.013133011 -0.052084126 -0.027057854 -0.0843078 0.030848026 0.05547088 -0.08585539
00000000: 5771 9e3e 3364 ef3d f6df c8bf cab3 9dbf
00000010: 762e b6bf ad37 913e a35a 533d 37d5 b5bf
00000020: d369 babe 527b 023e f93a 373e 8ca5 41bf
00000030: 33cb 42bf 369f a8bf cc2a 9dbf 40a6 c43f
00000040: 3c5d 8e3e 387f 4abe a39b 823f 8eff efbe
00000050: e421 ad3e 9d66 1f3c 6fa0 f5be 4a3a 543f
00000060: b2e6 6f3f 89b7 393d 953b 813d b6da 053f
00000070: b17e 013f 97a2 a7bf a063 a2bf 8615 6c3f
00000080: 6fb4 ff3e abcf 87bf dfd2 243f 1f68 e8be
00000090: 7a67 923f 0173 063e 7544 a93f c004 063f
000000a0: f7a3 d43e 7f1d cbbe f58c 043f 08bd 6c3f
000000b0: bb01 d63f 5c14 b7bf de15 58be 53c5 ee3f
000000c0: 9254 363e 3d10 843f c853 f1be f421 d5be
000000d0: 9a73 823e 37eb 50be 4d5a 173f 0720 ffbe
000000e0: 0ea6 533f 7cb6 b2bf 1888 143f 76ef a8bd
000000f0: b7d9 a7be 8cc9 633f 6bab d93f d20f d1be
00000100: 1063 3ebf 0bfe a9bf fb2c 403e f3f1 973f
00000110: 5705 79be 4a28 a7be b59e d8bc 5f57 eebd
00000120: c3c5 91bb 36c0 873d 2d6e fbbe 36ca 3fbd
00000130: b879 81bf 956f afbf ad69 2c3f 57fb b0bf
00000140: ce7c 51be 4dec cebe 7044 c0bf d500 0dbf
00000150: fc58 063f 480d fd3d 1f1b 9f3f 1b07 b03e
00000160: fcc1 7b3f 15ac c1be f472 e13e 8dd2 f73e
00000170: 49d2 173e 8589 31bd 4113 db3e 8875 763f
00000180: 8858 b2bf 4957 863e 1022 5bbd eae4 fb3c
00000190: 65c0 973f 36f9 153e df53 3bbd 8fa0 823f
000001a0: f2ee 433f 2aae 763e 1151 233f 4454 9b3e
000001b0: 0f2e 5a3e 580f 153f 83cf 22bf bbfd 2fbe
000001c0: 0dd1 7ebf 2bee aabf ba3c 523e 7da3 87be
000001d0: fd68 abbf afa8 d7bf 88b1 ac3d 468e 5b3f
000001e0: 0cca 383f 3304 3abe 0db6 173e e794 ddbd
000001f0: f0df 923e 8461 e9be 76b3 0fbe 6a0a d23e
00000200: 4374 9bbd a25d 683d 2140 823c 24d9 a13d
00000210: eb25 573c 34dc 9cbd f8b1 24bd ae24 a43d
00000220: 470d 55bd 53d6 34bc 6d7d 5abd 4a3f acbd
00000230: adfd 7c3b aec5 313d 80e1 423d 09b7 c93b
00000240: f405 46bd 66a2 81bc 84ad 1e3c 6518 743c
00000250: 8854 7fbd 9884 eebc f7c1 9d3d c7c4 043d
00000260: 1037 31bd 5a6f b03c 6d13 6fbd c44f 4d3d
00000270: 5dde 3bbd da99 153d e943 4d3d 8266 a7bd
00000280: 596a 943d 39d8 afbd 0a14 3cbd 83ea b6bc
00000290: c45c d6bc 4394 223d a46b 88bd b4ad 14bd
000002a0: 9079 a7bb d86c d83c 8f82 b2bd 4482 003d
000002b0: cc03 23bd 6366 913d f2c8 5cbd 0201 76bc
000002c0: 2362 21bd a1f6 a0bd d164 8f3d 58a7 173c
000002d0: abc2 9cbd f777 87bb a6fe 8ebd 03e8 47bc
000002e0: c443 6dbc d9ac 5abc 5f21 0abd 6c34 d13c
000002f0: 2829 f63c 2dd2 af3b c673 6abd e13f 03bd
00000300: 388c 69bc 5ac1 a3bd 7c6c eebb 3f69 9ebd
00000310: 7eb1 9c3d f607 8bbd eafa 973d e991 28bd
00000320: 8909 61bc 7bba 21bd 59fb dc3c 9ba1 9abb
00000330: b289 d93c 2ea3 8bbd ad00 a4bd 9939 2c3d
00000340: c52c a63d 5775 383c 88aa 3a3d 6c24 62bd
00000350: de50 413d 76fa 96bd 4dcc d83c 6c84 8cbd
00000360: 484b 643d 227c e53c 70aa 97bd ae3e a4bd
00000370: 716d 79bd f019 2d3c 9b3d b13c f02f 8c3d
00000380: 2873 96bd 24ac 083d bfa4 d0bc 7058 4dbb
00000390: 8262 0b3c ed61 bfbc 090f 35bd cc67 03bd
000003a0: 78f3 b03c df71 493d 0aba 363d 029b 7f3d
000003b0: 6287 4bbc 194a 23bd 8d3f 44bd e58b 0d3d
000003c0: 5d50 3e3b dd0f 843d 9eef c23b ead6 ca3b
000003d0: 7dcc 4ebd 7229 febc 415a a2bd bcdb bd3c
000003e0: 2b7e 843c d72b 57bc 2a56 55bd 6fa8 ddbc
000003f0: 91a9 acbd 00b5 fc3c 6f35 633d f3d4 afbd

fc.0.weight f4 [128, 129]
-0.009480519 -0.02953863 0.04459089 0.05935673 -0.0101600075 0.23927873 0.03543057 -0.032101527
0.037240952 0.13508895 -0.008921804 -0.09010504 0.04448879 0.08528097 0.033812717 -0.066447936
0.10812911 -0.04632261 0.057632346 -0.09242687 -0.01893245 0.15662046 -0.0637942 0.13752784
0.020283103 -0.12448306 -0.05755305 -0.21650727 -0.25130016 -0.04652223 0.0010247473 -0.032560732
-0.13649514 0.08703267 0.045527082 0.066685475 -0.056813035 -0.060522344 0.26062116 -0.083690055
-0.052781217 -0.075913824 -0.23575905 -0.115572736 0.057932705 0.025774324 -0.083686806 -0.052041516
-0.147878 -0.24650815 -0.078000136 -0.08184908 0.13592237 -0.05291789 0.22065291 0.055651765
0.21778616 -0.0657998 -0.15726355 0.09033877 -0.0628088 0.009521181 0.086262934 -0.022758486
0.14825915 -0.03699335 0.05613556 -0.0098135965 -0.124572106 -0.042398337 -0.17075549 -0.046196785
0.13250677 -0.03158529 -0.0023630075 -0.13863909 0.0155181885 0.061312295 0.18602672 -0.08478269
0.049595535 -0.069799386 -0.0065950095 -0.06981639 0.065863326 0.07562271 -0.06369357 0.24705455
-0.010694181 0.011531471 0.1005166 -0.14863093 0.023694701 -0.0016367581 -0.08561316 0.015598155
0.013315591 0.13015625 0.18018825 -0.008169004 0.11069408 0.033102702 -0.022786185 -0.11255684
-0.084028 0.010812753 0.0975154 0.100277744 -0.084108315 -0.11827586 0.05237335 -0.09174869
0.0804177 0.007926119 -0.07343528 0.023065371 0.075665146 -0.026432252 0.061646864 0.04894594
0.10513312 -0.08318511 0.08681321 -0.030015694 0.14643678 -0.018163338 -0.06533719 -0.010277146
0.03681481 0.045908105 -0.07878218 0.09707109 0.023509221 0.08705591 0.023041215 0.05176483
-0.015301449 -0.032464217 0.01959783 0.050631873 0.044953495 0.05652161 -0.01781726 0.020434594
-0.036339536 0.05973451 0.06595172 0.044520423 -0.018713456 -0.062084876 0.06623523 0.015798524
-0.021016303 0.06366254 0.04959093 -0.04282374 -0.0005023825 0.06339977 0.044501685 0.030110538
0.004893726 -0.05452015 -0.012061596 -0.05494608 0.025777811 -0.03816927 -0.06635973 0.023994938
-0.07242057 -0.014830807 0.068732776 -0.009773551 -0.03563805 -0.047848284 -0.0008786303 0.06760543
-0.07273155 -0.041527778 -0.0003794222 0.04513944 -0.08124359 -0.03420562 0.027052047 -0.08934971
0.04755662 -0.054510966 -0.059113458 0.0796424 0.008981966 0.064255945 0.0010619805 0.06276818
-0.050454795 -0.04154073 -0.068870135 0.019845482 0.070777535 -0.057893842 0.059349306 0.100973286
0.0029408042 0.006510401 0.009606634 0.06701103 0.046257388 -0.07079673 -0.040277217 -0.050878197
0.04531459 -0.06352547 0.063648164 0.051268816 -0.09676491 0.02120697 -0.071643494 -0.011905699
-0.031637646 -0.0061159683 -0.027715206 0.06393393 0.047095876 -0.09568459 0.07046365 0.033529967
-0.08526742 -0.007055187 0.015801774 -0.07479474 0.083783835 -0.022740386 0.0054193824 0.04732402
0.002225231 -0.07010241 0.05159601 0.026558299 -0.053956073 0.08725078 0.043749984 -0.025911903
0.048575625 -0.015800655 -0.050312094 0.056130685 0.048481863 -0.11144081 -0.057420373 0.05082212
0.06772417 0.05863846 0.09194405 0.06978061 0.014622642 0.011304882 -0.069031715 -0.056733325
00000000: 2e54 1bbc fffa f1bc f0a4 363d 0b20 733d
00000010: 2976 26bc 7c05 753e a51f 113d e47c 03bd
00000020: f889 183d c254 0a3e c22c 12bc fe88 b8bd
00000030: e139 363d caa7 ae3d 347f 0a3d db15 88bd
00000040: cb72 dd3d c7bc 3dbd e50f 6c3d 4c4a bdbd
00000050: 3a18 9bbc 1d61 203e 89a6 82bd 19d4 0c3e
00000060: c028 a63c f9f0 febd bfbc 6bbd 15b4 5dbe
00000070: 6aaa 80be 188e 3ebd d050 863a 675e 05bd
00000080: 62c5 0bbe 2f3e b23d 9b7a 3a3d 6592 883d
00000090: c9b4 68bd 47e6 77bd 2370 853e b165 abbd
000000a0: 1e31 58bd b578 9bbd d26a 71be 66b1 ecbd
000000b0: d84a 6d3d ad24 d33c fd63 abbd 7c29 55bd
000000c0: 556d 17be a26c 7cbe 89be 9fbd 7ea0 a7bd
000000d0: 3c2f 0b3e 6ec0 58bd d6f2 613e 1bf3 633d
000000e0: 5603 5f3e 0cc2 86bd b209 21be 8803 b93d
000000f0: e6a1 80bd bafe 1b3c 9faa b03d 0170 babc
00000100: 3fd1 173e 5786 17bd 67ee 653d 35c9 20bc
00000110: a91f ffbd e1a9 2dbd 87da 2ebe d738 3dbd
00000120: dbaf 073e 945f 01bd b0dc 1abb 68f7 0dbe
00000130: 0040 7e3c 9a22 7b3d ca7d 3e3e 8ca2 adbd
00000140: b024 4b3d fbf2 8ebd f31a d8bb e5fb 8ebd
00000150: 5ae3 863d 14e0 9a3d c671 82bd defb 7c3e
00000160: a536 2fbc 7fee 3c3c a6db cd3d b532 18be
00000170: 641b c23c 7d88 d6ba f455 afbd 678f 7f3c
00000180: a329 5a3c ae47 053e 4583 383e 49d7 05bc
00000190: 94b3 e23d b396 073d 18aa babc 3384 e6bd
000001a0: df16 acbd f927 313c 27b6 c73d 6b5e cd3d
000001b0: fb40 acbd 9d3a f2bd 7085 563d bde6 bbbd
000001c0: 09b2 a43d 8ddc 013c 3c65 96bd 97f3 bc3c
000001d0: 54f6 9a3d 7388 d8bc 6c81 7c3d 8a7b 483d
000001e0: 0950 d73d f45c aabd 20cb b13d 79e3 f5bc
000001f0: 86f3 153e 48cb 94bc 81cf 85bd 7961 28bc
00000200: 20cb 163d 230a 3c3d 8d58 a1bd 35cd c63d
00000210: 6996 c03c 5e4a b23d eec0 bc3c 5c07 543d
00000220: eeb2 7abc 33f9 04bd a18b a03c 5e63 4f3d
00000230: 2821 383d 3483 673d 81f5 91bc 7366 a73c
00000240: c4d8 14bd 2cac 743d b211 873d 0c5b 363d
00000250: f64c 99bc b64c 7ebd 56a6 873d e86b 813c
00000260: 622a acbc 8161 823d dc1f 4b3d f267 2fbd
00000270: 52b2 03ba bdd7 813d 6647 363d 60aa f63c
00000280: 8d5b a03b 8550 5fbd 009e 45bc 240f 61bd
00000290: fd2b d33c 6157 1cbd 9ce7 87bd 0891 c43c
000002a0: 3c51 94bd eafc 72bc c5c3 8c3d 3e21 20bc
000002b0: 34f9 11bd 90fc 43bd e253 66ba b774 8a3d
000002c0: 47f4 94bd 0819 2abd 30ed c6b9 22e4 383d
000002d0: 0a63 a6bd 311b 0cbd 419c dd3c fbfc b6bd
000002e0: bbca 423d e446 5fbd f420 72bd 8e1b a33d
000002f0: 1929 133c 9f98 833d 2732 8b3a 9b8c 803d
00000300: b0a9 4ebd 9d26 2abd c90b 8dbd fe92 a23c
00000310: d0f3 903d 1822 6dbd 4218 733d 15cb ce3d
00000320: 82ba 403b 3455 d53b 2565 1d3c 143d 893d
00000330: 6378 3d3d e0fd 90bd b9f9 24bd a865 50bd
00000340: cb9b 393d a419 82bd f859 823d 40ff 513d
00000350: ae2c c6bd 3dba ad3c d3b9 92bd 1f10 43bc
00000360: 7a96 01bd 7668 c8bb 000b e3bc cbef 823d
00000370: 9be7 403d 48f6 c3bd 3f4f 903d b856 093d
00000380: afa0 aebd 332f e7bb b972 813c fc2d 99bd
00000390: dc96 ab3d 0c4a babc 1395 b13b d5d6 413d
000003a0: 2ed5 113b da91 8fbd 5656 533d ca90 d93c
000003b0: 0b01 5dbd 89b0 b23d 2f33 333d 3345 d4bc
000003c0: 3cf7 463d 6070 81bc 0e14 4ebd 4ae9 653d
000003d0: eb94 463d 143b e4bd a031 6bbd db2a 503d
000003e0: f8b2 8a3d e22e 703d 294d bc3d 23e9 8e3d
000003f0: ce93 6f3c 1d38 393c 8060 8dbd 3461 68bd

fc.0.bias f4 [128]
0.28584117 -0.015642293 0.05040625 -0.048570056 -0.06623505 -0.02108758 -0.023381164 -0.08136834
-0.19188906 0.2764035 -0.020621203 -0.07863329 -0.07287687 0.22257149 0.18941157 -0.059976403
0.04071995 0.19769302 0.28522238 -0.004512438 0.046508323 0.015870964 -0.063231066 0.23481059
-0.09807277 0.18737143 0.09629227 0.2595636 0.22580332 -0.06337911 0.2071685 -0.0027079906
-0.069013186 -0.058261283 -0.09770937 0.018379169 0.2747944 -0.13695155 0.25609946 -0.041594237
-0.034462348 -0.08970449 -0.08492965 -0.10303614 0.27820545 0.14406303 0.012176028 0.27532116
0.017584657 -0.00043807822 0.19149148 0.2326878 -0.09278716 0.27862638 -0.05595953 -0.06951625
-0.014330029 0.19789408 0.24441661 -0.21719514 -0.028377157 -0.081055135 -0.011283293 -0.07873784
-0.0076621035 0.22294715 0.20946202 -0.034943875 0.038370855 -0.25532636 0.017519325 -0.011299094
-0.024383228 0.06546837 -0.084815994 0.23945075 -0.013611519 0.31155574 0.03760805 -0.055025566
0.2501289 0.20610453 -0.04909957 -0.31292602 0.21890205 0.22906172 -0.16559882 0.197369
0.21394105 0.23021899 0.04258483 0.30461898 0.088511616 0.16361128 0.1217674 -0.048714116
0.080618516 -0.00486468 -0.34014136 -0.088616304 -0.08446258 -0.029620223 -0.14161631 -0.027338998
0.13871725 -0.015088758 -0.031487964 0.29724082 -0.055842426 -0.015159385 -0.027638549 0.2461234
-0.030539788 -0.008231671 -0.23649676 0.0422527 -0.08458951 0.23151907 -0.04711294 -0.134909
0.17087007 0.2214292 -0.043985844 -0.05204629 -0.27141988 -0.08624675 -0.023157904 0.20268834
00000000: c659 923e 4424 80bc c976 4e3d 65f1 46bd
00000010: 3ea6 87bd dcbf acbc db89 bfbc 72a4 a6bd
00000020: 917e 44be c284 8d3e cced a8bc 7e0a a1bd
00000030: 7840 95bd c8e9 633e 1bf5 413e d1a9 75bd
00000040: f6c9 263d 0a70 4a3e ab08 923e 13dd 93bb
00000050: 837f 3e3d d303 823c 4a7f 81bd 3072 703e
00000060: 60da c8bd 4cde 3f3e e234 c53d 85e5 843e
00000070: fc38 673e e8cc 81bd fb23 543e 8b78 31bb
00000080: c956 8dbd 62a3 6ebd da1b c8bd e98f 963c
00000090: dab1 8c3e 073d 0cbe 781f 833e b85e 2abd
000000a0: 6428 0dbd fdb6 b7bd 99ef adbd 9d04 d3bd
000000b0: f270 8e3e 4285 133e f77d 473c e5f6 8c3e
000000c0: b30d 903c ddad e5b9 5816 443e b645 6e3e
000000d0: 3207 bebd 1ea8 8e3e d235 65bd 895e 8ebd
000000e0: 7fc8 6abc bfa4 4a3e 5948 7a3e 6768 5ebe
000000f0: 3677 e8bc 3c00 a6bd 90dd 38bc 4e41 a1bd
00000100: 6212 fbbb 424c 643e 367d 563e 4f21 0fbd
00000110: c22a 1d3d 23ba 82be b084 8f3c d61f 39bc
00000120: 56bf c7bc 4814 863d 02b4 adbd 9432 753e
00000130: d902 5fbc 3c84 9f3e e60a 1a3d 7d62 61bd
00000140: e510 803e 110d 533e a11c 49bd d737 a0be
00000150: dc27 603e 288f 6a3e bd92 29be 191b 4a3e
00000160: 5d13 5b3e 87be 6b3e 6e6d 2e3d 05f7 9b3e
00000170: 9445 b53d b789 273e 3061 f93d 7488 47bd
00000180: 521b a53d e567 9fbb 0227 aebe 777c b5bd
00000190: b8fa acbd 1ca6 f2bc de03 11be 09f6 dfbc
000001a0: e50b 0e3e d736 77bc 86f9 00bd f32f 983e
000001b0: 07bb 64bd 125f 78bc 3d6a e2bc c607 7c3e
000001c0: 942e fabc 21de 06bc 352c 72be 2b11 2d3d
000001d0: 443d adbd 5613 6d3e 80f9 40bd 9625 0abe
000001e0: 90f8 2e3e 56be 623e 802a 34bd 7e2e 55bd
000001f0: 8cf7 8abe 23a2 b0bd a5b5 bdbc 888d 4f3e

fc.2.weight f4 [1, 128]
-0.10884485 0.07762973 1.7097489 0.067928486 0.05706841 0.118404545 0.7559756 0.00835027
0.24636446 -0.14275412 0.06197685 0.03853893 -0.04733477 -0.11578421 -0.094783865 0.059822023
1.4315137 -0.06527822 -0.12662348 0.0077817733 0.28960463 0.0066645253 0.028267996 -0.09241782
-0.04683923 -0.038005527 0.47560707 -0.0898562 -0.09014374 0.12525916 -0.05495814 -0.5022506
-0.00023394084 0.0031293866 -0.0021174771 0.0018313882 -0.14499652 0.6898372 -0.12598892 0.0037200537
0.5882233 -0.019432424 -0.06787278 0.0045100665 -0.11072127 -0.8984404 0.72873366 -0.09379256
-1.8481421 0.13991883 -0.07717708 -0.07926317 0.012577082 -0.100582294 0.00395076 -1.5222504
-0.36557347 -0.3055359 -0.072136335 -0.00017900144 0.0039393045 0.007136222 0.062218547 -0.018539935
-0.0009893636 -0.07415537 -0.053845678 -0.014165623 -0.47028416 0.0018128752 0.49955347 0.24829973
-0.0023459713 -0.5244335 -0.022719363 -0.42069077 0.016955819 -0.6128636 0.34685302 -0.69640225
-0.12465731 -0.06343852 -0.0011876625 -8.438511e-05 -0.115257435 -0.097193904 -0.22898754 -0.041769028
-0.0892355 -0.1087877 -0.225866 -0.1484023 -0.21691711 -0.03573309 -1.1214706 -0.009566182
-0.56833297 -0.007220743 0.18302175 -0.053909045 -0.022593375 0.53416336 0.48761746 0.0058809035
-0.8267079 0.03471112 0.07197979 -0.16030875 0.03880477 -0.0027709764 0.0029292186 -0.08626969
-0.03977104 0.0020750468 0.13310434 -0.47399923 -0.031780187 -0.13931224 0.0009063431 1.4887474
-0.82576275 -0.09919174 0.024904607 -1.6710644 0.17319763 -0.03188545 1.649477 -0.05152187
00000000: 0cea debd 56fc 9e3d 0dd9 da3f 171e 8b3d
00000010: 91c0 693d 157e f23d 9e87 413f 92cf 083c
00000020: f746 7c3e 232e 12be 70db 7d3d ffda 1d3d
00000030: 1be2 41bd 4620 edbd 0b1e c2bd f007 753d
00000040: d73b b73f 96b0 85bd 96a9 01be 3ffe fe3b
00000050: 0f47 943e 1762 da3b 4992 e73c 8e45 bdbd
00000060: 7eda 3fbd afab 1bbd c582 f33e 8706 b8bd
00000070: 489d b8bd f043 003e c91b 61bd 7f93 00bf
00000080: 044e 75b9 6516 4d3b 5fc5 0abb 310b f03a
00000090: f879 14be 2c99 303f 3d03 01be 25cc 733b
000000a0: cd95 163f bf30 9fbc e200 8bbd 2ec9 933b
000000b0: d5c1 e2bd 3100 66bf 4a8e 3a3f 5016 c0bd
000000c0: ec8f ecbf e246 0f3e 040f 9ebd bb54 a2bd
000000d0: 1b10 4e3c 17fe cdbd 6075 813b 1ad9 c2bf
000000e0: 722c bbbe 346f 9cbe 37bc 93bd 55b2 3bb9
000000f0: 4815 813b f8d6 e93b e0d8 7e3d 10e1 97bc
00000100: 89ad 81ba c5de 97bd 498d 5cbd ee16 68bc
00000110: 16c9 f0be ff9d ed3a 79c5 ff3e 4942 7e3e
00000120: debe 19bb 4641 06bf f51d babc c864 d7be
00000130: eee6 8a3c a1e4 1cbf b896 b13e 6b47 32bf
00000140: 554c ffbd 0eec 81bd 57ab 9bba e9f7 b0b8
00000150: 170c ecbd 990d c7bd b67b 6abe 0016 2bbd
00000160: 1ac1 b6bd 16cc debd 6b49 67be c6f6 17be
00000170: 851f 5ebe dc5c 12bd 598c 8fbf 7abb 1cbc
00000180: 457e 11bf fc9b ecbb 0e6a 3b3e bbcf 5cbd
00000190: be15 b9bc eebe 083f ffa8 f93e 98b4 c03b
000001a0: 21a3 53bf 3f2d 0e3d 246a 933d fa27 24be
000001b0: c0f1 1e3d 4599 35bb 22f8 3f3b 2aae b0bd
000001c0: f5e6 22bd 82fd 073b 814c 083e 07b0 f2be
000001d0: f12b 02bd dea7 0ebe a897 6d3a 468f be3f
000001e0: 3065 53bf 0a25 cbbd bf04 cc3c 70e5 d5bf
000001f0: b85a 313e 519a 02bd 1022 d33f 9908 53bd
